app/assets/a910/model_binary_v3_256x256.onnx (onnx, 712801 bytes, 69 tensors)

deconv_4.0.weight f4 [64, 32, 2, 2]
0.13686658 0.09911997 -0.23322737 -0.23345353 -0.30260554 0.27680817 -0.23640087 -0.14898622
0.1443755 0.068870306 0.19305634 -0.63768655 0.023164494 -0.28831145 0.34808245 0.044477165
-0.21767968 0.36205667 0.2280275 -0.37866727 0.21481808 -0.20524809 0.07315751 0.13510649
-0.4601033 0.08356106 -0.01690131 0.05843495 -0.3646894 -0.049812034 0.015264729 -0.14783682
0.22667705 0.10584656 -0.12367208 0.0816337 0.26416117 -0.062428202 -0.2604528 -0.057550743
0.13026305 -0.114004694 -0.33464524 0.28982845 -0.1266233 -0.13833731 0.2824804 0.320781
0.12396461 0.1234022 0.07584509 -0.061880495 0.36166418 0.15535568 -0.03734145 -0.07315431
-0.27432272 -0.28246456 0.2568319 0.5073758 -0.07269545 0.05950634 0.11677805 0.06288801
0.06104746 0.34978345 -0.13632466 -0.25064036 -0.44701165 0.040131483 -0.026256096 -0.27651545
0.04177983 0.11005067 0.23478901 0.11388663 0.41714764 -0.13863261 -0.017451394 0.0049118917
0.024347661 0.0033190984 0.18378183 0.016352167 -0.42399913 -0.41290006 0.2649448 -0.3061835
-0.2809645 -0.2050158 -0.16667378 0.17968808 0.2873144 0.13275693 -0.07409862 -0.15434393
-0.13172609 0.24076945 -0.03547412 -0.010637504 -0.3368803 -0.34576413 0.17999656 0.033653695
-0.030043257 0.04463449 -0.06279028 0.24303482 -0.083762564 0.099664785 0.53952956 -0.037721977
-0.21646878 -0.0365729 -0.04670736 -0.04187723 -0.027838454 -0.18259192 -0.05484971 -0.038422182
-0.2998473 0.28919178 -0.20279947 -0.24607654 -0.062357333 -0.10948846 -0.49322742 -0.07699001
0.09628007 0.13599373 -0.07848041 -0.039149128 -0.21995547 0.13394326 -0.053580824 0.18495804
0.16573794 -0.6885881 0.14396724 0.07705634 0.16517001 -0.45248657 0.09783657 -0.360431
-0.035608795 -0.034323763 0.076000154 0.0803513 -0.13537401 -0.1480044 -0.18528894 0.20106833
-0.107747085 -0.59563905 -0.00516867 -0.25155738 0.08606778 0.22618707 -0.27586275 -0.2642963
-0.2663705 0.018316006 0.36195764 -0.1366689 -0.0103872055 0.17044796 -0.10668692 0.22029367
0.09585047 0.038102824 0.40023282 0.20539941 0.16114669 -0.03743562 0.11963293 -0.24095815
-0.4471798 -0.14748973 0.13704023 0.020923419 -0.16943452 0.3143678 -0.03022848 -0.41904828
0.18897906 0.12005782 0.12429637 0.12992443 -0.43767476 -0.16632925 0.5200322 -0.2516502
0.07458484 -0.23958305 0.21621832 0.0335341 0.028936494 0.33201128 -0.20237221 0.048954103
-0.3535905 0.054060467 -0.06260512 -0.15791522 0.10313323 -0.020596165 -0.02626063 0.36201862
-0.038688082 0.07510139 -0.077970125 -0.14203702 0.13981664 -0.002036291 -0.601945 -0.15127614
0.118255556 0.12955928 0.017033683 -0.3132411 -0.03290897 0.27036512 -0.12920052 -0.021422142
-0.32449543 0.23943591 -0.04543486 0.22275776 0.07282762 0.35893348 0.23139071 0.14805448
-0.29878762 -0.51401204 0.27021497 -0.27609828 0.22082742 0.071930245 -0.11666112 -0.26552105
0.116577625 -0.043814447 -0.021626191 -0.09776017 0.36246216 0.39538136 0.275155 -0.039280683
-0.10902096 -0.26964536 -0.30543655 0.42277566 0.22639394 -0.5810647 0.031077247 0.013857733
00000000: c126 0c3e 69ff ca3d 28d3 6ebe 710e 6fbe
00000010: 1def 9abe cdb9 8d3e 1213 72be d88f 18be
00000020: 2cd7 133e e00b 8d3d 90b0 453e 6d3f 23bf
00000030: 77c3 bd3c 8f9d 93be dd37 b23e b02d 363d
00000040: 6ce7 5ebe 7e5f b93e 0a80 693e ade0 c1be
00000050: 45f9 5b3e 8e2c 52be 9bd3 953d 5b59 0a3e
00000060: a992 ebbe 1022 ab3d 9e74 8abc 7c59 6f3d
00000070: 92b8 babe b407 4cbd ea18 7a3c 8962 17be
00000080: 071e 683e 15c6 d83d ca47 fdbd 922f a73d
00000090: 2240 873e b7b4 7fbd 125a 85be 54ba 6bbd
000000a0: ad63 053e 4b7b e9bd 9f56 abbe 6564 943e
000000b0: 8aa9 01be 4ca8 0dbe 45a1 903e 683d a43e
000000c0: 28e1 fd3d 4bba fc3d ac54 9b3d 6776 7dbd
000000d0: 0c2c b93e 8f15 1f3e 59f3 18bd edd1 95bd
000000e0: 0774 8cbe 329f 90be 797f 833e 61e3 013f
000000f0: 5ae1 94bd ecbc 733d 5529 ef3d 6ecb 803d
00000100: e70c 7a3d d116 b33e b198 0bbe ef53 80be
00000110: b6de e4be e960 243d 0617 d7bc 6f93 8dbe
00000120: 5421 2b3d 3f62 e13d 886c 703e 653d e93d
00000130: 6094 d53e b5f5 0dbe 3af6 8ebc eff3 a03b
00000140: bf74 c73c 3b85 593b 4e31 3c3e fbf4 853c
00000150: 6a16 d9be a367 d3be d8a6 873e 15c4 9cbe
00000160: 94da 8fbe a9ef 51be 88ac 2abe 2700 383e
00000170: df1a 933e 6ff1 073e 04c1 97bd 560c 1ebe
00000180: 34e3 06be 448c 763e 504d 11bd ed48 2ebc
00000190: 937b acbe ff07 b1be 0551 383e 75d8 093d
000001a0: 471d f6bc a8d2 363d 3198 80bd 1fde 783e
000001b0: b58b abbd 0d1d cc3d 9c1e 0a3f 5c82 1abd
000001c0: fea9 5dbe 77cd 15bd 3750 3fbd 7587 2bbd
000001d0: 780d e4bc 60f9 3abe 17aa 60bd 9460 1dbd
000001e0: 9685 99be f210 943e aaaa 4fbe 7dfb 7bbe
000001f0: 676a 7fbd 7c3b e0bd 4e88 fcbe f0ac 9dbd
00000200: 7c2e c53d f141 0b3e 56ba a0bd d65a 20bd
00000210: 023c 61be 6c28 093e 9177 5bbd a465 3d3e
00000220: 35b7 293e 4f47 30bf 266c 133e b7cf 9d3d
00000230: 5422 293e 52ac e7be 8a5e c83d 698a b8be
00000240: 87da 11bd 1397 0cbd f8a5 9b3d 398f a43d
00000250: 7c9f 0abe 778e 17be 62bc 3dbe dbe4 4d3e
00000260: 81aa dcbd cd7b 18bf f25d a9bb 21cc 80be
00000270: 4e44 b03d 959d 673e e23d 8dbe d851 87be
00000280: b761 88be 730b 963c 8352 b93e eff2 0bbe
00000290: 192f 2abc e989 2e3e ac7e dabd aa94 613e
000002a0: 404d c43d b511 1c3d 51eb cc3e 3954 523e
000002b0: a303 253e 1856 19bd 1c02 f53d bcbd 76be
000002c0: c0f4 e4be 8c07 17be 4654 0c3e 9767 ab3c
000002d0: 3e80 2dbe d1f4 a03e b8a1 f7bc 7f8d d6be
000002e0: ba83 413e e0e0 f53d 188f fe3d e90a 053e
000002f0: e816 e0be 3752 2abe d520 053f 4cd8 80be
00000300: f0bf 983d 4255 75be 5668 5d3e 0d5b 093d
00000310: 3a0c ed3c 62fd a93e a93a 4fbe 1984 483d
00000320: d009 b5be 826e 5d3d 1d37 80bd 87b4 21be
00000330: 8437 d33d 4ab9 a8bc 8820 d7bc 815a b93e
00000340: 6577 1ebd c2ce 993d cdae 9fbd 2772 11be
00000350: 182c 0f3e 4b73 05bb 1119 1abf 22e8 1abe
00000360: f82f f23d 30ab 043e 398a 8b3c 2361 a0be
00000370: 8ecb 06bd 4c6d 8a3e 244d 04be 7d7d afbc
00000380: 4424 a6be b02e 753e e719 3abd 9c1a 643e
00000390: a626 953d 21c6 b73e b0f1 6c3e 989b 173e
000003a0: b1fa 98be 4b96 03bf 9e59 8a3e c15c 8dbe
000003b0: 9520 623e 2a50 933d 06ec eebd 60f2 87be
000003c0: 40c0 ee3d c776 33bd 6929 b1bc 7c36 c8bd
000003d0: a494 b93e 6d6f ca3e 1ee1 8c3e c8e4 20bd
000003e0: 6246 dfbd f50e 8abe 2e62 9cbe 0d76 d83e
000003f0: d0d3 673e a8c0 14bf b695 fe3c 8c0b 633c

deconv_4.0.bias f4 [32]
0.0023133075 -0.079628386 -0.086645305 -0.047922306 0.02391398 0.0032393145 0.08693379 0.08456835
-0.004143546 -0.028676357 0.006787892 -0.057392843 -0.04879138 -0.073145926 0.03813959 -0.0033715668
0.034506075 -0.05737234 -0.050826557 0.017564647 -0.08191923 0.0015574222 0.08282093 -0.02326312
-0.02972132 0.0811856 0.073088974 0.054162707 -0.028416201 -0.081354044 0.08802542 -0.03636511
00000000: dc9a 173b 3514 a3bd 1873 b1bd 2e4a 44bd
00000010: 40e7 c33c ae4a 543b 580a b23d 2c32 ad3d
00000020: 95c6 87bb aeea eabc f76c de3b c214 6bbd
00000030: 78d9 47bd 88cd 95bd 4238 1c3d 81f5 5cbb
00000040: 3e56 0d3d 42ff 6abd 822f 50bd bce3 8f3c
00000050: 45c5 a7bd 6b22 cc3a 059e a93d 4c92 bebc
00000060: 207a f3bc a344 a63d acaf 953d b7d9 5d3d
00000070: 18c9 e8bc f39c a6bd ac46 b43d 95f3 14bd

deconv_4.1.weight f4 [32]
1.0056638 1.0585151 1.0359657 0.9135107 1.0279913 0.9923373 1.0379183 0.98061657
1.0254346 0.94168824 0.9485647 0.8806063 1.0201437 0.96536994 0.96177423 0.89957947
0.9897427 1.0415106 1.0191193 0.9903193 0.93551546 1.0106019 0.9875507 1.066282
0.9210532 1.0425905 1.0158949 1.0581712 0.9767914 1.1075329 1.1034209 0.99472404
00000000: 97b9 803f 6c7d 873f 869a 843f d6db 693f
00000010: 3895 833f d109 7e3f 82da 843f b009 7b3f
00000020: 7141 833f 7b12 713f 23d5 723f 6a6f 613f
00000030: 1294 823f 7c22 773f d636 763f d74a 663f
00000040: c75f 7d3f 3850 853f 8072 823f 9185 7d3f
00000050: f17d 6f3f 675b 813f 1fd0 7c3f ee7b 883f
00000060: 24ca 6b3f 9b73 853f d808 823f 2772 873f
00000070: 000f 7a3f a3c3 8d3f e53c 8d3f 3ca6 7e3f

deconv_4.1.bias f4 [32]
-0.29239315 -0.23574369 -0.20482676 -0.22318625 -0.2967276 0.0036800308 -0.3528357 -0.3990807
-0.3596558 -0.1238185 -0.054564968 -0.5007403 -0.10132763 -0.17153822 -0.5036965 0.06333711
-0.15838407 -0.30820987 -0.45268512 -0.03179031 -0.34379596 -0.09431047 -0.13886502 -0.5111842
0.106287114 -0.42321026 -0.117664926 -0.026487505 -0.3886827 -0.45229182 -0.30353716 -0.07462661
00000000: 8eb4 95be cb66 71be 1bbe 51be f08a 64be
00000010: aeec 97be ac2c 713b e2a6 b4be 4e54 ccbe
00000020: ce24 b8be 8e94 fdbd 847f 5fbd 8430 00bf
00000030: dc84 cfbd b7a7 2fbe 41f2 00bf e3b6 813d
00000040: 6f2f 22be afcd 9dbe 58c6 e7be 8e36 02bd
00000050: 0606 b0be d925 c1bd a232 0ebe f8dc 02bf
00000060: 0fad d93d 04af d8be 4ffa f0bd 53fc d8bc
00000070: 6b01 c7be cb92 e7be 3969 9bbe d6d5 98bd

deconv_4.1.running_mean f4 [32]
0.18471672 -1.2060269 -0.7791794 -0.7927927 -0.67846507 -0.5233538 -0.19164011 -0.43017194
0.10474831 -0.80126685 -0.8723271 -0.1893746 -1.2059448 -0.5119567 0.015663462 -0.768095
-0.80195576 -0.3204501 0.42121938 -0.8512319 -0.4796457 -0.81008023 -0.68518245 -0.1271498
-0.96033597 -0.30043396 -1.0072294 -0.2245549 -0.7174627 -0.8608259 -0.7919047 -0.8434282
00000000: 6126 3d3e 175f 9abf 4d78 47bf 76f4 4abf
00000010: e3af 2dbf 84fa 05bf 4e3d 44be 7f3f dcbe
00000020: 4886 d63d d31f 4dbf d450 5fbf 6aeb 41be
00000030: 665c 9abf 980f 03bf a950 803c e0a1 44bf
00000040: f94c 4dbf 0912 a4be 11aa d73e 55ea 59bf
00000050: 1f94 f5be 6b61 4fbf 1e68 2fbf 8f33 02be
00000060: 94d8 75bf 7bd2 99be e5ec 80bf b8f1 65be
00000070: a3ab 37bf 165f 5cbf 44ba 4abf e9ea 57bf

deconv_4.1.running_var f4 [32]
1.2027783 0.9998396 1.1330036 1.074014 0.6802277 0.9861078 0.9470916 1.0598391
0.9674693 0.93341845 0.9598403 0.8572812 1.0517312 0.8333695 0.8487044 1.3659774
0.9991029 0.99215615 0.71481866 1.1871041 0.7477971 0.97389126 1.0875566 0.91099733
1.6595589 1.0406736 1.5956209 1.2158768 1.2162563 1.308399 1.51664 1.2631134
00000000: a4f4 993f 7df5 7f3f 4306 913f 4a79 893f
00000010: 6723 2e3f 9071 7c3f 9874 723f cfa8 873f
00000020: 11ac 773f 83f4 6e3f 18b8 753f c876 5b3f
00000030: 219f 863f b457 553f b144 593f 59d8 ae3f
00000040: 35c5 7f3f f2fd 7d3f 5bfe 363f 07f3 973f
00000050: a16f 3f3f f050 793f 0e35 8b3f 1f37 693f
00000060: 6d6c d43f cb34 853f 4e3d cc3f daa1 9b3f
00000070: 49ae 9b3f 9e79 a73f 4221 c23f b3ad a13f

deconv_3.0.weight f4 [32, 16, 2, 2]
-0.1593646 0.007061893 -0.11843972 -0.22734219 -0.38583878 0.0074461224 0.19008376 0.12047043
0.14513536 -0.19700834 -0.26587436 -0.5727461 0.010512725 0.14222516 -0.21360908 0.13953991
-0.17073119 0.10208244 -0.07677854 0.064976774 0.26191577 0.07250492 -0.548938 -0.20771758
-0.07391437 -0.004972452 -0.0058790348 0.033091765 -0.13702749 -0.031205289 -0.19187218 -0.3278702
-0.38808158 -0.04830216 0.28258774 0.16431457 -0.16612151 -0.32489493 -0.3138519 -0.15186308
-0.2496126 -0.36847445 0.12960136 -0.09715634 0.26268917 0.15985456 0.33726043 0.4464765
-0.12913527 -0.44695687 -0.17195813 0.11503849 -0.034487855 -0.010714131 -0.2999614 -0.04135337
-0.6163707 -0.16036104 -0.20700167 -0.058441717 -0.013992336 0.04221795 0.1308134 -0.22919777
-0.09175187 -0.06283162 0.11164442 -0.12105692 -0.3077508 -0.45047706 0.17598167 0.16515835
0.1456452 -0.27797127 0.19867405 -0.19094637 -0.37212446 -0.08212851 0.044495538 0.039866857
-0.21717013 -0.15943931 0.051114645 -0.22348663 0.015731856 -0.030915575 -0.6458943 0.33903557
0.10587754 0.33211726 -0.08579425 -0.36290982 0.42075184 0.27134955 -0.009047914 -0.18807754
-0.0071023926 -0.3948967 -0.38796556 0.255839 0.05156719 0.24337764 0.15520075 -0.034233578
0.38017568 0.13654014 0.07691698 0.02879368 0.15659207 0.23587361 -0.044629138 -0.0715268
-0.3265553 0.16870725 0.12711827 -0.17262653 -0.18886279 -0.25060362 -0.18985888 -0.079262994
0.046849515 0.15419887 0.07442448 -0.10117358 0.14088894 0.2333948 -0.019301437 -0.0013505783
0.00076942984 -0.2050692 0.20563531 0.06476613 0.066799544 0.060194694 -0.18735519 -0.10631983
0.14933014 0.31720823 0.17740874 -0.0059009623 -0.076894075 0.18467072 0.1521732 0.2343725
-0.23813717 0.17369883 -0.13213716 0.23229238 0.12894718 -0.025745217 0.20394886 0.013406956
-0.24015464 -0.1950084 0.18032457 -0.2825381 -0.034745328 0.28084284 -0.06866262 0.13198498
-0.019004595 0.07218958 0.11249189 -0.07845526 0.08470043 0.15426943 -0.13616951 0.19326364
0.0185528 -0.15258063 0.1496534 -0.2067046 -0.28445575 -0.124314964 -0.23503353 -0.091200285
-0.36246008 0.17839646 -0.00942073 0.19687587 -0.05878071 0.10825406 0.16050091 0.2495837
-0.06502305 0.10626471 -0.46093398 -0.021765465 0.013481206 0.41541278 0.037545115 0.20661101
0.110995516 0.42921236 0.36843473 -0.16466157 0.04419298 0.17325237 -0.10875984 -0.13610385
0.029106619 -0.22355166 -0.03660727 -0.14954984 0.09197826 0.2734475 -0.06218779 -0.018489504
0.23816307 0.21062475 -0.34806105 0.11813833 0.050929863 -0.3233325 -0.050316136 0.10905822
-0.0046793204 -0.05993501 -0.44240648 0.4418456 0.16448873 0.14894156 -0.35588148 0.07606329
-0.058923036 -0.08882977 0.14648418 0.43131074 0.059734106 -0.11095687 0.13845919 0.16207585
0.09177467 0.11670174 0.016778613 0.080947354 -0.29995906 0.26077932 -0.105464175 -0.13411102
-0.027232623 -0.111742966 0.12343053 0.25090328 -0.18488486 -0.37339026 0.03951432 -0.019151142
-0.19466603 -0.05904301 -0.45004496 -0.4611846 -0.30682862 -0.24013084 -0.0017966493 -0.114399604
00000000: 7930 23be 7467 e73b 8690 f2bd 64cc 68be
00000010: a98c c5be 9afe f33b 51a5 423e 33b9 f63d
00000020: 5d9e 143e 8ebc 49be af20 88be 7d9f 12bf
00000030: 913d 2c3c 79a3 113e 57bc 5abe 8de3 0e3e
00000040: 28d4 2ebe 9910 d13d 113e 9dbd 8b12 853d
00000050: d319 863e 767d 943d 3387 0cbf ebb3 54be
00000060: 6b60 97bd f3ef a2bb eba4 c0bb 3b8b 073d
00000070: ef50 0cbe 3ca2 ffbc 247a 44be 9ade a7be
00000080: a1b2 c6be 7cd8 45bd 57af 903e 1442 283e
00000090: c21b 2abe a158 a6be 32b1 a0be ff81 1bbe
000000a0: 729a 7fbe afa8 bcbe 38b6 043e e7f9 c6bd
000000b0: 327f 863e eab0 233e 66ad ac3e 9198 e43e
000000c0: 093c 04be 88d7 e4be cb15 30be 4d99 eb3d
000000d0: 2343 0dbd 538a 2fbc 8a94 99be 2762 29bd
000000e0: 78ca 1dbf af35 24be 3ff8 53be 9560 6fbd
000000f0: 1c40 65bc bbec 2c3d f3f3 053e d2b2 6abe
00000100: 68e8 bbbd ddad 80bd d4a5 e43d b1ec f7bd
00000110: 8391 9dbe eea4 e6be 8a34 343e 451f 293e
00000120: 0424 153e 4052 8ebe 3671 4b3e 7287 43be
00000130: 1987 bebe fe32 a8bd f440 363d 6e4b 233d
00000140: d961 5ebe 0f44 23be 975d 513d aed9 64be
00000150: 18e0 803c a942 fdbc 5459 25bf 1296 ad3e
00000160: 53d6 d83d 460b aa3e e5b4 afbd 51cf b9be
00000170: c96c d73e 54ee 8a3e b43d 14bc 6697 40be
00000180: 30bb e8bb e62f cabe 6ca3 c6be 54fd 823e
00000190: 1e38 533d fd37 793e f2ec 1e3e 8238 0cbd
000001a0: 63a6 c23e 2ed1 0b3e a686 9d3d b9e0 eb3c
000001b0: ac59 203e da88 713e 0bcd 36bd a57c 92bd
000001c0: 4232 a7be 98c1 2c3e 4b2b 023e 02c5 30be
000001d0: 3f65 41be 1e4f 80be 5e6a 42be a354 a2bd
000001e0: 47e5 3f3d 4fe6 1d3e dd6b 983d 1834 cfbd
000001f0: 3145 103e 0cff 6e3e 0c1e 9ebc e305 b1ba
00000200: 90b3 493a a9fd 51be 1092 523e 1ba4 843d
00000210: 33ce 883d b68e 763d 0ada 3fbe 36be d9bd
00000220: 00ea 183e 1e69 a23e a3aa 353e dc5c c1bb
00000230: a47a 9dbd 521a 3d3e 4bd3 1b3e 58ff 6f3e
00000240: 3bda 73be 1bde 313e f74e 07be 0ede 6d3e
00000250: bb0a 043e a2e7 d2bc f8d7 503e d9a8 5b3c
00000260: 19eb 75be 48b0 47be 01a7 383e d5a8 90be
00000270: 1e51 0ebd a2ca 8f3e fd9e 8cbd 1227 073e
00000280: 86af 9bbc 21d8 933d 2662 e63d 27ad a0bd
00000290: 6b77 ad3d cef8 1d3e 0570 0bbe e7e6 453e
000002a0: 0bfc 973c 193e 1cbe be3e 193e 5faa 53be
000002b0: 2fa4 91be d898 febd a1ac 70be 37c7 babd
000002c0: 5e94 b9be 90ad 363e 6859 1abc d499 493e
000002d0: 0bc4 70bd 4eb4 dd3d 5a5a 243e df92 7f3e
000002e0: ce2a 85bd 50a1 d93d 8aff ebbe 7d4d b2bc
000002f0: 47e0 5c3c fcb0 d43e e8c8 193d d691 533e
00000300: 9e51 e33d b9c1 db3e 7aa3 bc3e 0b9d 28be
00000310: b303 353d 1269 313e 7bbd debd cf5e 0bbe
00000320: 0171 ee3c baea 64be 81f1 15bd 9823 19be
00000330: 195f bc3d 5001 8c3e a0b8 7ebd 4d77 97bc
00000340: 05e1 733e 04ae 573e 0f35 b2be 82f2 f13d
00000350: d59b 503d d68b a5be 4b18 4ebd eb59 df3d
00000360: fc54 99bb 6a7e 75bd 1a83 e2be 9639 e23e
00000370: bc6f 283e 2384 183e 1936 b6be 12c7 9b3d
00000380: 4859 71bd 62ec b5bd f3ff 153e c3d4 dc3e
00000390: c0ab 743d 5b3d e3bd 3fc8 0d3e 36f7 253e
000003a0: 5cf4 bb3d 5201 ef3d 4d73 893c bac7 a53d
000003b0: 3c94 99be de84 853e 9afd d7bd 6654 09be
000003c0: f316 dfbc 7fd9 e4bd 25c9 fc3d 6576 803e
000003d0: 7552 3dbe 022d bfbe c5d9 213d dbe2 9cbc
000003e0: 8856 47be 15d7 71bd 4b6c e6be 6320 ecbe
000003f0: a418 9dbe dce4 75be 8c7d ebba 574a eabd

deconv_3.0.bias f4 [16]
-0.032616578 0.121806994 -0.060922313 0.109545305 0.069421194 0.03189689 -0.0251447 -0.11848908
-0.075746275 -0.07300877 -0.039698612 -0.090526335 -0.07574994 -0.078523315 0.03083948 0.05198378
00000000: f698 05bd f275 f93d ad89 79bd 4a59 e03d
00000010: b32c 8e3d 50a6 023d 42fc cdbc 67aa f2bd
00000020: dd20 9bbd 9f85 95bd 039b 22bd df65 b9bd
00000030: c922 9bbd d5d0 a0bd 14a3 fc3c f2ec 543d

deconv_3.1.weight f4 [16]
0.91629416 0.9504731 0.9267905 0.9868024 1.1295407 1.0286922 1.0210489 1.0497323
0.8000134 0.96137035 1.1897154 1.0298126 1.1145383 0.9841266 1.0753174 0.9523548
00000000: 4192 6a3f 3552 733f 2442 6d3f 159f 7c3f
00000010: ca94 903f 30ac 833f bbb1 823f a15d 863f
00000020: aecd 4c3f 5e1c 763f 9848 983f e6d0 833f
00000030: 31a9 8e3f b9ef 7b3f 00a4 893f 86cd 733f

deconv_3.1.bias f4 [16]
0.2589432 0.1699245 -0.15964127 -0.09579807 0.18497428 -0.0692641 0.05559029 -0.11827309
-0.35754803 0.25981733 -0.2315347 -0.11112437 0.15340465 0.001981607 0.21892463 -0.14490853
00000000: 3494 843e b000 2e3e 0079 23be c731 c4bd
00000010: e669 3d3e 56da 8dbd a5b2 633d 2939 f2bd
00000020: 8910 b7be c706 853e 6f17 6dbe 2c95 e3bd
00000030: 1c16 1d3e d9dd 013b c72d 603e e762 14be

deconv_3.1.running_mean f4 [16]
-0.37777987 -0.7125203 -0.22281076 0.05378198 -0.76913214 -0.26545808 -0.40017596 -0.5652128
0.20503342 -0.54198706 0.54688025 -0.22967981 -0.91588855 -0.36434883 -0.24969272 0.0860864
00000000: 5d6c c1be bb67 36bf 8128 64be 7e4a 5c3d
00000010: d8e5 44bf 1fea 87be dde3 ccbe c9b1 10bf
00000020: 48f4 513e aabf 0abf 5800 0c3f 2f31 6bbe
00000030: ac77 6abf ee8b babe 73af 7fbe 114e b03d

deconv_3.1.running_var f4 [16]
0.95383584 1.1777648 0.86979073 0.9488476 1.2234933 1.0434332 1.035984 0.6755358
0.4425298 0.9849253 0.9938477 0.95641327 1.2325574 0.5801185 2.2539585 0.74135447
00000000: 962e 743f ffc0 963f 9baa 5e3f ade7 723f
00000010: 6e9b 9c3f 388f 853f 209b 843f eaef 2c3f
00000020: 4493 e23e 1124 7c3f ce6c 7e3f 80d7 743f
00000030: 71c4 9d3f a582 143f db40 1040 68c9 3d3f

deconv_2.0.weight f4 [16, 8, 2, 2]
-0.17807725 -0.1305101 -0.1394453 0.03460354 -0.03599561 0.030757876 -0.14844438 -0.20545447
0.31753585 -0.14888313 -0.036397997 -0.06443292 -0.096687704 0.10667706 0.09725436 -0.12789772
-0.23900041 0.008473005 -0.22970882 -0.09043137 0.054833487 0.043014694 -0.13045044 0.09000518
-0.11336308 -0.14575584 0.00943721 0.08731209 -0.26953262 0.36155844 -0.01675275 0.005445708
-0.08436083 -0.04293883 -0.14873564 -0.15026975 -0.19842455 -0.17236927 -0.15015872 -0.23741384
0.28404137 -0.117742464 -0.54939 -0.15603979 -0.025456216 0.28082693 -0.16613214 -0.111350186
-0.035764642 0.26619017 -0.107069105 0.40634072 0.092234276 -0.35093623 -0.15032236 -0.1567791
-0.21403249 -0.034624893 -0.31989497 0.30850255 0.030368173 0.04368401 0.15003921 -0.17134415
0.23461254 -0.07948969 -0.122979835 -0.053180356 0.1868768 0.3290785 0.29191414 0.18757804
-0.07517443 0.13363332 -0.12659545 0.039625425 0.08174761 -0.15420735 -0.038592577 -0.16861661
-0.016811438 -0.26562145 -0.053869594 -0.35456926 -0.11152684 -0.06764913 -0.03713971 -0.1419751
-0.043920964 0.010873699 -0.11186274 -0.26423526 -0.16599454 -0.0373977 0.05479954 0.06807074
0.040626124 0.02444493 0.03933438 0.22606853 -0.08074536 -0.031418804 0.103858866 0.049669817
-0.04685836 -0.09244345 0.16252701 0.02020509 0.19660145 0.22426338 0.26937568 -0.16813561
0.06598042 -0.3565616 0.33254477 -0.33575007 0.10998442 0.21540143 0.35023102 -0.07006743
0.1946761 -0.03990277 0.031203607 -0.012600182 -0.0819527 0.052870385 0.064470336 0.017637637
0.40300167 0.25206283 -0.16601816 0.29194918 0.30822653 0.06976427 0.036564477 0.28536686
0.11256194 0.20138133 -0.0052976906 0.01138081 -0.2794973 -0.21994738 0.058394972 0.12669273
0.03538379 0.032779023 0.031260762 0.04972611 0.13486123 -0.07395215 -0.044122983 0.015241504
0.042899054 0.16309835 0.15825422 0.14096145 0.15974207 0.14182645 0.0441017 0.17426862
-0.002854736 0.11172391 -0.10418957 0.03138255 0.008255885 0.053110905 0.10430265 0.038459912
0.18385863 -0.053889193 -0.20010717 -0.07829808 0.24550058 0.011039307 0.19096704 -0.14917311
0.08192447 -0.022683578 -0.17662528 0.32646033 -0.217324 -0.27846667 -0.15587448 -0.35058776
0.11154459 0.14971852 0.2141621 0.022926621 -0.1331481 -0.4261967 0.3384626 0.07554781
-0.029216833 0.13148901 -0.10741228 0.124211445 0.1228967 -0.011545476 -0.16639295 0.08233926
0.0067809275 -0.026241578 -0.1402957 0.103817 -0.20939489 0.049721897 -0.37956983 -0.021662783
0.41543642 0.23551884 -0.3018504 0.51755553 -0.16836786 0.12238915 0.16061248 -0.31011593
0.038505636 0.13791917 -0.24670863 0.24805063 0.16509883 -0.1123916 -0.032241166 -0.030650834
-0.12076376 0.28385347 -0.14674455 0.5180609 -0.06894804 -0.108590834 0.3023499 0.3605445
-0.09363319 -0.12102527 0.022711543 -0.01567175 0.4856034 0.15126334 0.071803376 -0.1434379
0.013267188 -0.058951933 -0.05059537 0.012521462 -0.29512683 -0.010859295 -0.34161988 -0.22318798
-0.18327302 0.07774571 0.15350148 0.02460483 -0.12433331 0.2245649 -0.011493451 0.10877425
00000000: e259 36be 71a4 05be c0ca 0ebe 71bc 0d3d
00000010: 2270 13bd f1f7 fb3c ce01 18be a862 52be
00000020: 0f94 a23e d274 18be 1116 15bd 68f5 83bd
00000030: 3404 c6bd 8179 da3d 4b2d c73d 9ff7 02be
00000040: 86bc 74be 5cd2 0a3c ca38 6bbe 1534 b9bd
00000050: 1499 603d 2d30 303d cd94 05be a354 b83d
00000060: e72a e8bd 0541 15be 879e 1a3c aed0 b23d
00000070: 2e00 8abe 301e b93e 103d 89bc e971 b23b
00000080: 5fc5 acbd a0e0 2fbd 284e 18be 50e0 19be
00000090: ce2f 4bbe 9281 30be 35c3 19be 9d1c 73be
000000a0: df6d 913e f622 f1bd d3a4 0cbf e5c8 1fbe
000000b0: 8e89 d0bc 8cc8 8f3e 8b1e 2abe 910b e4bd
000000c0: f27d 12bd 144a 883e 0c47 dbbd e40b d03e
000000d0: 53e5 bc3d eaad b3be 1bee 19be b38a 20be
000000e0: 552b 5bbe d5d2 0dbd 46c9 a3be 0cf4 9d3e
000000f0: adc6 f83c 01ee 323d e1a3 193e d774 2fbe
00000100: 453e 703e 7ecb a2bd dadc fbbd a5d3 59bd
00000110: a25c 3f3e fa7c a83e c575 953e 7514 403e
00000120: 0df5 99bd 2cd7 083e 3da2 01be 454e 223d
00000130: 4a6b a73d 88e8 1dbe 4013 1ebd d5a9 2cbe
00000140: 24b8 89bc 89ff 87be 5da6 5cbd 1a8a b5be
00000150: 2f68 e4bd a18b 8abd cf1f 18bd ec61 11be
00000160: 78e6 33bd 9927 323c 4b18 e5bd d849 87be
00000170: 79fa 29be 552e 19bd 7c75 603d ac68 8b3d
00000180: 9467 263d bc40 c83c 161d 213d 827e 673e
00000190: d35d a5bd 01b1 00bd f5b3 d43d 9472 4b3d
000001a0: 8dee 3fbd fe52 bdbd 7b6d 263e 2585 a53c
000001b0: e451 493e 4da5 653e 9ceb 893e be2b 2cbe
000001c0: be20 873d 3e8f b6be 4f43 aa3e 6fe7 abbe
000001d0: 833f e13d 3192 5c3e 7b51 b33e 837f 8fbd
000001e0: 2c59 473e 1671 23bd b59e ff3c fe70 4ebc
000001f0: d1d6 a7bd 9e8e 583d 0609 843d ce7c 903c
00000200: 3c56 ce3e 610e 813e aa00 2abe 5d7a 953e
00000210: decf 9d3e 92e0 8e3d a2c4 153d 9b1b 923e
00000220: e086 e63d e836 4e3e 4098 adbb 9476 3a3c
00000230: 451a 8fbe e339 61be 912f 6f3d bdbb 013e
00000240: 98ee 103d 4c43 063d 490b 003d 9bad 4b3d
00000250: 1019 0a3e 3a74 97bd 4dba 34bd 80b7 793c
00000260: ebb6 2f3d 4103 273e 650d 223e 3358 103e
00000270: 6d93 233e f43a 113e fca3 343d 7973 323e
00000280: 8616 3bbb 81cf e43d 5761 d5bd fd8a 003d
00000290: b143 073c d28a 593d a19c d53d 2488 1d3d
000002a0: 7045 3c3e eaba 5cbd e5e8 4cbe be5a a0bd
000002b0: 8164 7b3e 36de 343c dd8c 433e d6c0 18be
000002c0: 04c8 a73d e9d2 b9bc 42dd 34be cf25 a73e
000002d0: 2f8a 5ebe 2f93 8ebe 8f9d 1fbe 3d80 b3be
000002e0: 7d71 e43d d04f 193e 4f4d 5b3e 9cd0 bb3c
000002f0: fa57 08be 7436 dabe f84a ad3e cfb8 9a3d
00000300: 2458 efbc 0ea5 063e f8fa dbbd 9262 fe3d
00000310: 44b1 fb3d 3c29 3dbc ea62 2abe 7ca1 a83d
00000320: 8b32 de3b 94f8 d6bc ada9 0fbe 029e d43d
00000330: 9d6b 56be 30a9 4b3d fa56 c2be 2676 b1bc
00000340: 15b4 d43e da2b 713e 238c 9abe 857e 043f
00000350: a068 2cbe 2aa7 fa3d 9977 243e 84c7 9ebe
00000360: 16b8 1d3d af3a 0d3e 30a1 7cbe fc00 7e3e
00000370: ab0f 293e 912d e6bd 500f 04bd 7517 fbbc
00000380: fd52 f7bd 3e55 913e 3444 16be a49f 043f
00000390: a134 8dbd df64 debd 9bcd 9a3e 4a99 b83e
000003a0: c2c2 bfbd 19dc f7bd 8f0d ba3c 0b62 80bc
000003b0: 02a1 f83e c7e4 1a3e a60d 933d 63e1 12be
000003c0: 9f5e 593c 9577 71bd 173d 4fbd d126 4d3c
000003d0: dd1a 97be 2feb 31bc cde8 aebe 648b 64be
000003e0: ecab 3bbe 2539 9f3d 7e2f 1d3e 1290 c93c
000003f0: 76a2 febd 57f4 653e 074f 3cbc 09c5 de3d

deconv_2.0.bias f4 [8]
-0.09529876 0.17334324 0.06759336 -0.13691145 0.124906324 -0.074281625 -0.055604357 0.121079214
00000000: ff2b c3bd e480 313e 636e 8a3d 8432 0cbe
00000010: e3ce ff3d f720 98bd 65c1 63bd 61f8 f73d

deconv_2.1.weight f4 [8]
1.0236009 1.0036572 1.0927788 1.0816457 0.9931032 0.8527655 1.0919715 0.96071064
00000000: 5b05 833f d777 803f 2de0 8b3f 5e73 8a3f
00000010: 033c 7e3f d74e 5a3f b9c5 8b3f 22f1 753f

deconv_2.1.bias f4 [8]
-0.02878035 -0.13973832 0.12371162 0.025402451 0.14669058 -0.2962681 0.2242432 0.017119464
00000000: c5c4 ebbc 9017 0fbe 855c fd3d cd18 d03c
00000010: 0e36 163e 74b0 97be 02a0 653e 1e3e 8c3c

deconv_2.1.running_mean f4 [8]
-0.448352 -0.12565646 -0.3528665 -0.08192077 0.18001477 -0.6397021 -0.06836194 0.29486397
00000000: 658e e5be 16ac 00be ebaa b4be 14c6 a7bd
00000010: cb55 383e 84c3 23bf 5801 8cbd 69f8 963e

deconv_2.1.running_var f4 [8]
0.33669707 0.3300939 0.36226097 0.39754653 0.45964444 0.12440484 0.38604498 0.28208476
00000000: 8f63 ac3e 1102 a93e 457a b93e 388b cb3e
00000010: 8456 eb3e f7c7 fe3d b0a7 c53e 6a6d 903e

deconv_1.0.weight f4 [8, 4, 2, 2]
-0.11345171 0.09135504 0.22904727 0.045088246 -0.12143158 -0.07789276 -0.004185465 0.30620962
0.009690353 0.0020048418 -0.3026236 0.042954676 -0.27014002 0.21827853 0.011526578 -0.046034686
0.07881033 0.19606364 0.3501821 0.22597305 -0.07856835 -0.21067959 -0.1308574 0.12213893
0.16064903 0.08973631 0.120188184 0.17774555 -0.19132517 -0.05311878 0.015288299 -0.116721705
-0.016525656 0.10320401 0.3696348 -0.15113088 0.06849839 0.40699545 -0.2806986 -0.28787288
0.3956497 -0.11681185 -0.10604183 -0.17953473 0.0521555 -0.35356432 0.22389674 0.117839664
-0.08973159 -0.12201619 0.0017255686 0.14556704 0.043921854 0.11637251 0.057353273 -0.13192451
-0.34103835 0.054878525 -0.06709044 -0.23298725 -0.13516109 0.100901954 0.27381063 -0.16184022
-0.16956729 0.02252921 -0.3407074 -0.18850186 -0.08811042 0.31356585 -0.10916819 0.08296758
-0.23971355 0.09783125 -0.27637684 -0.051831514 -0.16899854 0.23912737 0.12294921 0.25001788
-0.19729213 0.03352653 -0.21526136 -0.17818297 0.19981311 0.13479777 -0.1853827 -0.05193054
0.24625085 0.07153097 -0.07784568 -0.034691386 -0.19146866 0.52717346 -0.29892817 0.23592716
0.10013233 -0.31639764 -0.73530525 0.2425946 -0.1280715 0.34364554 -0.47152627 0.43750134
0.5277548 -0.151528 -0.033208285 0.21193816 -0.3030535 -0.057749677 0.10790817 -0.2184793
0.08940708 0.06330642 -0.08548534 0.26053843 -0.06540085 -0.19442093 -0.0992705 0.035407417
-0.30487874 -0.053924426 -0.088126756 -0.19775012 -0.13436672 -0.04183495 0.22939125 -0.06229155
00000000: 5f59 e8bd 5a18 bb3d 5e8b 6a3e 74ae 383d
00000010: 1fb1 f8bd 3d86 9fbd 3a26 89bb 82c7 9c3e
00000020: 49c4 1e3c aa63 033b 7bf1 9abe 3ef1 2f3d
00000030: cb4f 8abe 6884 5f3e f9d9 3c3c de8e 3cbd
00000040: 4f67 a13d e8c4 483e 114b b33e 7b65 673e
00000050: 71e8 a0bd 64bc 57be 7bff 05be fa23 fa3d
00000060: 2e81 243e acc7 b73d 3925 f63d ee02 363e
00000070: bfea 43be 1493 59bd c67b 7a3c ca0b efbd
00000080: d060 87bc a05c d33d c640 bd3e 0ec2 1abe
00000090: e248 8c3d b561 d03e bab7 8fbe 1364 93be
000000a0: 9992 ca3e 0d3b efbd 752c d9bd f4d7 37be
000000b0: 01a1 553d 6206 b5be 3045 653e ec55 f13d
000000c0: 32c5 b7bd a0e3 f9bd 792c e23a 870f 153e
000000d0: 67e7 333d b654 ee3d 44eb 6a3d 3817 07be
000000e0: 949c aebe 4ec8 603d b666 89bd 3694 6ebe
000000f0: ab67 0abe afa5 ce3d e830 8c3e 71b9 25be
00000100: 0ca3 2dbe 2e8f b83c 3371 aebe a206 41be
00000110: 3c73 b4bd b48b a03e 9293 dfbd e8ea a93d
00000120: 7877 75be c05b c83d 4481 8dbe 484d 54bd
00000130: f40d 2dbe cedd 743e cccc fb3d 5802 803e
00000140: f306 4abe 1d53 093d 796d 5cbe 9975 36be
00000150: cf9b 4c3e 6d08 0a3e f6d4 3dbe 1eb5 54bd
00000160: 2f29 7c3e d47e 923d 8e6d 9fbd 8e18 0ebd
00000170: 5c10 44be d7f4 063f 1d0d 99be e496 713e
00000180: 2e12 cd3d dffe a1be f73c 3cbf b86a 783e
00000190: 2d25 03be 4ff2 af3e e46b f1be 2d00 e03e
000001a0: f01a 073f 282a 1bbe 6905 08bd 5106 593e
000001b0: d429 9bbe ed8a 6cbd f5fe dc3d 0ab9 5fbe
000001c0: 0f1b b73d cca6 813d f012 afbd 4b65 853e
000001d0: e1f0 85bd 4816 47be 554e cbbd 5e07 113d
000001e0: 1119 9cbe dcdf 5cbd cd7b b4bd 027f 4abe
000001f0: 6e97 09be 205b 2bbd 8ae5 6a3e 6d25 7fbd

deconv_1.0.bias f4 [4]
-0.16067186 0.034781117 -0.012380388 0.12602946
00000000: 2a87 24be a576 0e3d 1cd7 4abc de0d 013e

deconv_1.1.weight f4 [4]
1.079858 0.92959553 0.91651857 1.1152055
00000000: c938 8a3f f9f9 6d3f f6a0 6a3f 0ebf 8e3f

deconv_1.1.bias f4 [4]
0.17765273 0.080016084 0.1456844 0.08123721
00000000: 99ea 353e 79df a33d 4b2e 153e b25f a63d

deconv_1.1.running_mean f4 [4]
-0.21613935 0.04230557 -0.049488936 0.103355855
00000000: a253 5dbe 9b48 2d3d e9b4 4abd 3cac d33d

deconv_1.1.running_var f4 [4]
0.28637198 0.22567447 0.12433821 0.20840555
00000000: 599f 923e 3517 673e 08a5 fe3d 4468 553e

280 f4 [4, 1, 3, 3]
2.0918045 -3.8770416 -2.7114613 0.17833847 -1.5567448 -1.6047955 1.5119959 -0.19609876
2.6884947 -3.1215222 1.940201 7.5227113 -1.3275595 0.3803391 2.3704376 -2.111562
0.034448817 -4.873839 -0.11902109 -5.610713 -5.4469357 0.20898564 0.04869464 -1.0454633
8.717657 4.4027514 -1.1994643 -4.056163 -4.609971 -2.2985222 -3.0640376 2.6406462
1.791986 -4.715121 3.1215127 11.133765
00000000: 20e0 0540 7321 78c0 9588 2dc0 5c9e 363e
00000010: 6a43 c7bf f069 cdbf 1589 c13f 1dce 48be
00000020: 4c10 2c40 05c7 47c0 8258 f83f 0dba f040
00000030: 78ed a9bf cebb c23e 40b5 1740 d523 07c0
00000040: 341a 0d3d 7df6 9bc0 54c1 f3bd f68a b3c0
00000050: 4c4d aec0 5500 563e 0874 473d bed1 85bf
00000060: 867b 0b41 57e3 8c40 0c88 99bf 16cc 81c0
00000070: e284 93c0 fd1a 13c0 3119 44c0 5900 2940
00000080: cc5f e53f 45e2 96c0 ddc6 4740 e723 3241

281 f4 [4]
0.72978354 0.055811077 0.06575858 0.09220872
00000000: 18d3 3a3f 289a 643d 6fac 863d edd7 bc3d

283 f4 [4, 4, 3, 3]
-0.086132035 -0.03485232 0.110936075 -0.1149573 0.029381966 0.09208946 -0.27721533 0.033745255
0.23595835 0.08604433 0.086647876 -0.049034886 0.1315182 -0.14497793 -0.28299046 0.015322896
-0.1591451 -0.2857914 -0.06950574 0.19588359 -0.059602868 -0.09144772 0.10769015 -0.08261095
-0.023225043 -0.04514682 0.0119068865 -0.053205356 -0.60383385 0.08844929 -0.03510322 0.06585512
-0.63614273 0.02100657 -0.05749071 -0.104697905 0.14014244 0.17390625 0.37822518 0.1322247
0.031035922 -0.025661092 0.18086943 -0.043053646 0.146573 -0.027213 -0.12855923 0.027336298
-0.119839616 -0.29271156 -0.110789426 -0.1188189 -0.12554488 0.13516629 0.036604613 0.06115237
-0.5584167 0.03533942 0.09306315 -0.014598268 0.025949232 0.010079213 -0.033756394 0.081321485
-0.31598535 -0.2557097 0.07036643 -0.048814334 0.10626321 0.066306725 0.06192131 0.07247205
0.023351777 0.13650373 0.083676964 -0.1570007 -0.09692702 -0.047082074 -0.41514203 -0.108420685
0.032665372 -0.2442219 -0.19636059 -0.07172294 -0.004857377 0.04485156 0.028192563 0.28231543
0.021619042 -0.035809677 0.19545507 -0.18727991 0.12862599 0.108577095 -0.48641658 -0.020730486
-0.26605287 -0.023920689 -0.023161588 0.15780665 -0.15756056 -0.009781552 -0.25111675 -0.029333992
-0.005383271 -0.26132286 -0.034269884 -0.2768459 -0.15022914 -0.3614869 0.047681242 -0.23161067
-0.17343786 -0.05561654 -0.13967904 -0.21894734 0.016647194 0.26414356 0.033435035 -0.029213535
0.097571015 0.14530239 0.050191328 0.11538498 0.067199335 -0.08154798 0.046503145 -0.08673428
-0.01731593 -0.11488617 0.12387921 -0.00984347 0.0016764749 -0.10099126 0.029807042 0.09783992
-0.06669438 -0.045830436 -0.044519123 0.09343846 0.0016316017 -0.013542863 -0.05298128 -0.07101783
00000000: fe65 b0bd 4ec1 0ebd 7432 e33d bc6e ebbd
00000010: 73b2 f03c 6699 bc3d 2bef 8dbe 7738 0a3d
00000020: 119f 713e 0238 b03d 7174 b13d ced8 48bd
00000030: b5ac 063e 1875 14be 20e4 90be e20c 7b3c
00000040: eff6 22be 4053 92be 0759 8ebd b595 483e
00000050: 2322 74bd f148 bbbd a78c dc3d ee2f a9bd
00000060: 7242 bebc dfeb 38bd 1a15 433c dced 59bd
00000070: db94 1abf e724 b53d 65c8 0fbd 0ddf 863d
00000080: 40da 22bf f815 ac3c 617b 6bbd db6b d6bd
00000090: 8081 0f3e 7b14 323e bba6 c13e e965 073e
000000a0: 0c3f fe3c 3637 d2bc d635 393e 0559 30bd
000000b0: 3c17 163e cced debc 08a5 03be 5ff0 df3c
000000c0: 796e f5bd 4ade 95be 91e5 e2bd 5357 f3bd
000000d0: d68e 00be 0869 0a3e b8ee 153d e87a 7a3d
000000e0: 66f4 0ebf 11c0 103d e597 be3d 932d 6fbc
000000f0: 7c93 d43c 4923 253c 2544 0abd e18b a63d
00000100: d5c8 a1be 62ec 82be 461c 903d 8af1 47bd
00000110: 87a0 d93d d2cb 873d 33a1 7d3d 3a6c 943d
00000120: 3a4c bf3c a2c7 0b3e d45e ab3d cbc4 20be
00000130: ac81 c6bd 22d9 40bd 7f8d d4be aa0b debd
00000140: 20cc 053d 4e15 7abe c012 49be 7ae3 92bd
00000150: a22a 9fbb 45b6 373d 17f4 e63c a68b 903e
00000160: 6b1a b13c 2bad 12bd 6025 483e 4ec6 3fbe
00000170: 88b6 033e ab5d de3d 980b f9be fbd2 a9bc
00000180: 1538 88be 52f5 c3bc 5fbd bdbc 1198 213e
00000190: 8e57 21be cd42 20bc 6092 80be d74d f0bc
000001a0: 2666 b0bb 1ccc 85be 945e 0cbd bfbe 8dbe
000001b0: abd5 19be d014 b9be 684d 433d 592b 6dbe
000001c0: b299 31be 2bce 63bd 0608 0fbe bb33 60be
000001d0: b25f 883c d33d 873e 2df3 083d 3951 efbc
000001e0: 50d3 c73d 26ca 143e 6c95 4d3d f64e ec3d
000001f0: ce9f 893d a102 a7bd 157a 3e3d bea1 b1bd
00000200: 23da 8dbc 7149 ebbd 62b4 fd3d 8146 21bc
00000210: 2abd db3a 81d4 cebd e62d f43c 4c60 c83d
00000220: 1097 88bd b2b8 3bbd af59 36bd aa5c bf3d
00000230: 78db d53a e2e2 5dbc e602 59bd cc71 91bd

284 f4 [4]
0.49822667 0.4389776 0.59970397 1.034546
00000000: 9117 ff3e acc1 e03e 3386 193f 016c 843f

286 f4 [8, 4, 3, 3]
-0.2783954 -0.29363966 -0.4815484 0.07472244 -0.36917406 0.48869923 0.010854101 0.029716652
-0.47328356 -0.27296418 0.23803627 0.09365007 -0.28186876 -0.7572257 -0.1624631 0.19564977
0.7402473 0.14883624 0.58397907 -0.17963423 0.35330495 0.31829327 1.0522039 0.6129093
0.4853737 -0.474858 0.33777714 0.26590037 -0.37385744 -0.3451193 0.13004455 0.5584486
0.46430132 -0.56020397 -0.8732394 -0.42444524 -0.31767175 0.20518903 -0.048420224 0.03455951
0.49695903 -0.28307542 0.22623755 -0.41455635 0.0029170658 0.17088316 -0.2223677 -0.026109174
0.0078110807 -0.4075427 -0.03338791 0.752359 0.28367618 -0.11576221 -0.0039141234 0.3708014
0.12929246 -0.28968537 0.8154765 -0.43056527 -0.11778046 -0.5241245 0.11785431 0.028506223
0.39457464 0.11441876 0.44817474 1.5279992 -0.6237349 -1.093221 -0.5582024 0.11896759
0.12095768 -0.10089447 0.08686512 -0.17892708 -0.15648696 -0.13046828 0.18218337 0.013023317
0.14620462 0.028629627 0.015120104 0.096393995 0.18457156 0.12152121 -0.18940504 0.2846913
-1.8787497 -0.15641987 0.15214981 -0.4458563 -0.37652192 -0.32491657 0.15043011 -0.17131366
0.32088968 -0.12810962 0.20163915 -0.14845927 -0.16092534 -0.61123455 -0.2980778 0.10798597
-1.1083415 0.10243188 0.77074397 0.13197386 0.034085542 -0.036189515 0.15079363 0.12222472
-0.023986382 -0.30954945 0.5283481 -0.110229656 -0.11820749 -0.043607462 -0.2108403 -0.00028824518
-0.25749433 0.19551192 0.10237254 0.13264239 0.6797688 0.4166426 0.06917753 0.0013768965
-0.08474452 0.0866886 -0.08340417 0.03375332 0.15675426 -0.3185101 -0.05293946 -0.017462485
0.19895813 0.057452604 0.054340407 -0.023618637 -0.51881033 -0.011733586 -0.8525858 0.13422723
-0.07436137 -0.4625508 0.107369944 0.3826685 1.8612053 -0.14024964 -0.92209566 -0.31421286
-0.16243185 0.2108237 -0.23260692 0.16016223 -0.45278612 1.045944 -0.25165763 -0.9134426
0.8921687 -0.3471361 -0.1774559 0.6705554 0.54075027 0.09261564 -0.7538537 -0.7297346
-0.06964953 0.52269864 0.12544607 -0.15958151 0.29063028 -0.15155512 0.582511 -0.20247477
0.20241919 0.8145656 -0.6975487 -0.39785913 -0.08817401 0.0071882736 0.04946284 0.011281707
-0.113009185 -0.17268448 -0.31576934 -0.45877784 0.19027998 -0.07736904 0.13948892 -0.0117482385
-0.095983356 0.26261425 -0.23446763 -0.2890143 -0.28503355 -0.3850938 0.0964275 0.015449606
-0.08741553 -0.043620024 -0.22164899 -0.141267 -0.02770368 0.12414439 0.12613875 -0.037600093
0.08235548 -0.015135592 -0.031257574 -0.17106089 0.16984744 -0.14881068 0.35588956 0.6500929
0.2672574 0.12767589 0.17915247 0.8393174 -0.3008468 0.24619973 1.0206405 -0.22702731
0.46651223 0.011481705 -0.2803885 -0.16192299 -0.040397566 0.29735824 -0.108990274 0.13166893
-0.05008673 -0.37466487 -0.4573748 0.12413721 -0.40200865 0.34600797 -0.8555417 -0.39118955
0.10438267 -0.35933617 -0.1499323 -0.16161035 -0.10504855 0.095888816 0.4220386 -0.6578179
0.15867913 0.6624566 -0.9001398 0.91569316 -0.5280398 0.87490696 0.18796407 -0.85505354
00000000: d889 8ebe f057 96be 838d f6be 1408 993d
00000010: 6204 bdbe c936 fa3e 66d5 313c 5670 f33c
00000020: 3952 f2be f6c1 8bbe c8bf 733e 9ccb bf3d
00000030: 1a51 90be 8bd9 41bf ba5c 26be 6a58 483e
00000040: d980 3d3f 8768 183e a77f 153f 09f2 37be
00000050: 63e4 b43e 56f7 a23e 9eae 863f a0e7 1c3f
00000060: e782 f83e 9620 f3be 20f1 ac3e 1824 883e
00000070: 3e6a bfbe 7ab3 b0be 662a 053e 7df6 0e3f
00000080: e7b8 ed3e 8769 0fbf 9e8c 5fbf e350 d9be
00000090: dfa5 a2be 131d 523e 4954 46bd 468e 0d3d
000000a0: 6a71 fe3e 43ef 90be d1aa 673e bb40 d4be
000000b0: 3e2c 3f3b fffb 2e3e 5cb4 63be e8e2 d5bc
000000c0: 18f4 ff3b 70a9 d0be c3c1 08bd 999a 403f
000000d0: 013e 913e bd14 edbd 0c42 80bb aed9 bd3e
000000e0: 3e65 043e a451 94be 11c3 503f 0d73 dcbe
000000f0: e236 f1bd 062d 06bf 9a5d f13d e285 e93c
00000100: b005 ca3e 6254 ea3d 2977 e53e 7a95 c33f
00000110: 17ad 1fbf aaee 8bbf 5ae6 0ebf 48a5 f33d
00000120: a9b8 f73d c3a1 cebd 57e6 b13d a938 37be
00000130: 1e3e 20be 7a99 05be 478e 3a3e c05f 553c
00000140: aab6 153e ae88 ea3c 50ba 773c 376a c53d
00000150: 5400 3d3e 1de0 f83d 65f3 41be 0fc3 913e
00000160: df7a f0bf 882c 20be 29cd 1b3e 4747 e4be
00000170: 7bc7 c0be 775b a6be 5a0a 1a3e d96c 2fbe
00000180: a74b a43e 2b2f 03be 7e7a 4e3e b505 18be
00000190: 9dc9 24be de79 1cbf a79d 98be c027 dd3d
000001a0: 22de 8dbf cec7 d13d 7a4f 453f 2824 073e
000001b0: 489d 0b3d 753b 14bd a569 1a3e f450 fa3d
000001c0: 177f c4bc 447d 9ebe d241 073f 16c0 e1bd
000001d0: c516 f2bd bd9d 32bd 85e6 57be 9d1f 97b9
000001e0: 4cd6 83be 4734 483e b2a8 d13d 68d3 073e
000001f0: 5405 2e3f 2e52 d53e f3ac 8d3d fb78 b43a
00000200: 898e adbd cb89 b13d cecf aabd ec40 0a3d
00000210: 3084 203e c113 a3be 0cd7 58bd 7c0d 8fbc
00000220: aebb 4b3e 6c53 6b3d 0c94 5e3d df7b c1bc
00000230: c1d0 04bf 3a3e 40bc 1043 5abf dd72 093e
00000240: c64a 98bd 75d3 ecbe c6e4 db3d 20ed c33e
00000250: fa3b ee3f 9a9d 0fbe 760e 6cbf 82e0 a0be
00000260: 8954 26be 2be2 573e 8230 6ebe 9101 243e
00000270: 95d3 e7be 7ee1 853f 45d9 80be 60d7 69bf
00000280: 2b65 643f d3bb b1be 00b7 35be 85a9 2b3f
00000290: 9c6e 0a3f 45ad bd3d 8efc 40bf e3cf 3abf
000002a0: 6aa4 8ebd 94cf 053f ef74 003e 5669 23be
000002b0: 7ecd 943e 4431 1bbe 711f 153f 8c55 4fbe
000002c0: fa46 4f3e 5f87 503f 8d92 32bf 31b4 cbbe
000002d0: 9394 b4bd 9c8b eb3b 8c99 4a3d e9d6 383c
000002e0: 5c71 e7bd 33d4 30be 85ac a1be eee4 eabe
000002f0: c1d8 423e a973 9ebd 2fd6 0e3e af7b 40bc
00000300: ec92 c4bd 6075 863e 4818 70be aff9 93be
00000310: ebef 91be 042b c5be c87b c53d 5820 7d3c
00000320: ea06 b3bd e9aa 32bd f4f7 62be 4ca8 10be
00000330: d4f2 e2bc 6a3f fe3d 842a 013e 8e02 1abd
00000340: fda9 a83d 46fb 77bc f107 00bd 962a 2fbe
00000350: 7dec 2d3e d461 18be 2837 b63e 7d6c 263f
00000360: f6d5 883e 78bd 023e bf73 373e 81dd 563f
00000370: 9708 9abe c81b 7c3e 59a4 823f d979 68be
00000380: b1da ee3e c31d 3c3c 158f 8fbe 24cf 25be
00000390: eb77 25bd 573f 983e 4b36 dfbd 38d4 063e
000003a0: be27 4dbd 13d4 bfbe 082d eabe a63b fe3d
000003b0: 14d4 cdbe f527 b13e c804 5bbf ff49 c8be
000003c0: 95c6 d53d e9fa b7be da87 19be 2f7d 25be
000003d0: b223 d7bd 5b61 c43d 7215 d83e c166 28bf
000003e0: c87c 223e c196 293f 906f 66bf de6a 6a3f
000003f0: 9e2d 07bf e7f9 5f3f a779 403e cae4 5abf

287 f4 [8]
0.4646123 -0.24067295 2.357263 0.61403453 0.20384985 -0.21190736 -0.039567873 1.7827375
00000000: aae1 ed3e f872 76be 66dd 1640 5e31 1d3f
00000010: 04be 503e 3efe 58be ec11 22bd be30 e43f

289 f4 [8, 8, 3, 3]
0.06988352 -0.064788766 -0.1052575 -0.26827228 -0.17754497 0.13115132 0.06866378 0.068959296
0.067503415 -0.06517132 0.04814027 0.02514335 0.03225625 -0.3337191 -0.11971139 -0.17415552
0.016208656 0.1956101 -0.01887606 0.013406769 0.0027312196 0.048895374 -0.011707129 -0.14910778
0.06225489 -0.16732974 -0.11663411 -0.18391035 -0.061092146 -0.1261696 -0.13062087 -0.14097968
0.036484115 -0.16949257 -0.017504882 0.05742053 -0.07286834 -0.02825268 0.015387674 0.11662261
-0.316952 0.1588038 -0.022325879 -0.038150154 0.119546585 0.0690631 0.18324552 -0.040978055
0.14050199 0.03380387 -0.08915138 -0.017590925 0.030473128 -0.066236146 -0.07262963 0.12138494
-0.19277297 -0.06823686 -0.048702683 -0.1320498 0.047913905 -0.2499499 0.17203832 0.04098507
0.04267111 0.1092827 -0.10467501 0.008799953 0.10015234 -0.025111739 0.25087738 -0.08246137
-0.050557822 0.087429866 -0.02926629 0.12414537 -0.12504481 0.011241382 0.09539521 -0.011076838
0.05683959 -0.070449725 0.049359966 -0.013294839 -0.085117035 -0.15705019 -0.18810867 -0.15990669
-0.03955915 -0.013046864 0.08954408 -0.010541289 0.030649504 0.13286574 0.28748092 0.20736413
0.0695275 -0.042132564 0.13869022 -0.06757241 0.082104966 0.044644184 -0.06194661 -0.08272789
-0.015506253 -0.14167675 -0.07447332 0.060732517 -0.020674746 0.020985521 -0.070139684 -0.05300147
0.052838076 -0.003324366 -0.07217043 -0.13458432 -0.016898692 -0.028639762 0.01184776 0.07189115
0.032985467 -0.024050828 0.0034117254 0.1477038 -0.025465706 0.017793901 -0.075300574 0.054665573
-0.061341923 -0.011103801 0.018334882 -0.06446804 -0.043285307 -0.22163437 -0.012457114 -0.072850436
-0.061007276 -0.08325209 0.05271567 -0.12906344 -0.062059205 -0.042061344 -0.18067844 -0.02454388
0.06192483 -0.0011997395 0.0793633 0.17784937 0.028306836 0.085520394 0.10554144 0.09328302
0.13976257 0.11163202 0.008860705 0.16722864 0.030839587 -0.063239574 0.14896224 0.024980484
-0.11460881 -0.008739396 -0.0554155 -0.04742106 -0.02342456 0.07467112 0.0054750424 0.0070232777
0.06836214 -0.028814714 0.07015593 0.0044339853 0.045168985 0.06308633 0.040567398 -0.037211817
0.01639409 7.072651e-05 -0.0938116 0.041813847 -0.011459186 -0.13952132 0.060844123 0.15053022
0.06456217 0.2357948 0.014978729 -0.17431673 0.080097556 0.07230031 0.019639987 -0.017966926
-0.11656686 -0.0008717284 -0.06701566 0.08110224 -0.034416992 -0.08118095 -0.17429043 -0.15799046
-0.14535873 -0.06712053 0.09479655 0.09778391 -0.02410781 -0.19192876 -0.09083481 -0.04456295
-0.04606351 -0.0052744425 0.07279637 0.08785275 -0.15300818 -0.19141585 -0.08228916 -0.18481918
-0.03840097 0.026088683 0.014713554 -0.034835584 0.04627185 0.011919731 -0.009022227 0.025870541
-0.0010454513 -0.031802345 0.00528449 -0.06363602 0.008441802 -0.0044069802 0.0048607313 -0.018504184
0.06733504 0.029008945 -0.042083934 0.032932382 -0.0439195 -0.00018149553 -0.08994537 0.02769399
0.11277816 -0.07401117 0.10519661 -0.025825007 -0.15956862 -0.035381854 -0.1430013 -0.075347126
-0.123033196 -0.12684964 -0.10937827 -0.1333921 -0.08838387 -0.0043459013 0.029269287 -0.0179868
00000000: 171f 8f3d f9af 84bd 3f91 d7bd fc5a 89be
00000010: 59ce 35be 884c 063e 999f 8c3d 883a 8d3d
00000020: 3b3f 8a3d 8b78 85bd bb2e 453d 6df9 cd3c
00000030: 211f 043d 3bdd aabe 3f2b f5bd d355 32be
00000040: 04c8 843c 044e 483e f8a1 9abc 11a8 5b3c
00000050: 43fe 323b 8446 483d 42cf 3fbc b6af 18be
00000060: fcfe 7e3d 7d58 2bbe dddd eebd ff52 3cbe
00000070: c23b 7abd 9b32 01be 7ac1 05be fa5c 10be
00000080: 5e70 153d 768f 2dbe 6666 8fbc ca31 6b3d
00000090: ff3b 95bd 2a72 e7bc 951c 7c3c d6d7 ee3d
000000a0: 8847 a2be 779d 223e c3e4 b6bc 5643 1cbd
000000b0: d7d4 f43d f470 8d3d b7a4 3b3e 9bd8 27bd
000000c0: c1df 0f3e ed75 0a3d 0095 b6bd d81a 90bc
000000d0: c8a2 f93c d1a6 87bd d8be 94bd ab98 f83d
000000e0: 4766 45be c4bf 8bbd 777c 47bd 1038 07be
000000f0: 5f41 443d def2 7fbe d02a 303e f6df 273d
00000100: e7c7 2e3d 9ccf df3d da5f d6bd ae2d 103c
00000110: ac1c cd3d 22b7 cdbc 0073 803e 82e1 a8bd
00000120: b815 4fbd 6e0e b33d dcbf efbc ee3f fe3d
00000130: bf0b 00be c62d 383c 905e c33d a07b 35bc
00000140: a1d0 683d f247 90bd ad2d 4a3d 99d2 59bc
00000150: d751 aebd c4d1 20be 8f9f 40be 94be 23be
00000160: c608 22bd 84c2 55bc e362 b73d 5fb5 2cbc
00000170: ab14 fb3c f50d 083e b330 933e 4357 543e
00000180: 6f64 8e3d 3293 2cbd cf04 0e3e 6763 8abd
00000190: a626 a83d d2dc 363d bbbb 7dbd 3d6d a9bd
000001a0: f00d 7ebc b613 11be 7885 98bd a9c2 783d
000001b0: 165e a9bc d4e9 ab3c 65a5 8fbd 1218 59bd
000001c0: bd6c 583d 9bdd 59bb 17ce 93bd 79d0 09be
000001d0: 206f 8abc ef9d eabc 1b1d 423c ab3b 933d
000001e0: c51b 073d 3e06 c5bc 4197 5f3b aa3f 173e
000001f0: 759d d0bc 84c4 913c 3037 9abd 02e9 5f3d
00000200: ab41 7bbd b8ec 35bc 0933 963c d207 84bd
00000210: ef4b 31bd 1ff4 62be ec18 4cbc 9c32 95bd
00000220: c4e2 79bd 1280 aabd 63ec 573d 3529 04be
00000230: cb31 7ebd 8448 2cbd c503 39be 3f10 c9bc
00000240: e4a4 7d3d 9440 9dba 3a89 a23d 251e 363e
00000250: bde3 e73c 5125 af3d 1c26 d83d 2b0b bf3d
00000260: eb1d 0f3e 549f e43d 7e2c 113c fc3d 2b3e
00000270: 4da3 fc3c c083 81bd 8f89 183e dfa3 cc3c
00000280: 06b8 eabd af2f 0fbc 5dfb 62bd 963c 42bd
00000290: dde4 bfbc 2ced 983d fc67 b33b 8623 e63b
000002a0: 7301 8c3d d60c ecbc eaad 8f3d f74a 913b
000002b0: 1d03 393d 6833 813d 002a 263d 6b6b 18bd
000002c0: e64c 863c 0253 9438 4c20 c0bd ff44 2b3d
000002d0: 4fbf 3bbc adde 0ebe b037 793d 9824 1a3e
000002e0: 2c39 843d 3174 713e 5869 753c 1680 32be
000002f0: 300a a43d 2f12 943d 0ae4 a03c 602f 93bc
00000300: 9bba eebd b484 64ba 823f 89bd ee18 a63d
00000310: d5f8 0cbd 3342 a6bd 3179 32be 40c8 21be
00000320: ebd8 14be 7d76 89bd b224 c23d ee42 c83d
00000330: be7d c5bc f988 44be 9a07 babd a487 36bd
00000340: 17ad 3cbd 3bd5 acbb 4316 953d 25ec b33d
00000350: 2dae 1cbe 8402 44be 3887 a8bd 3d41 3dbe
00000360: 564a 1dbd efb7 d53c 1e11 713c c2af 0ebd
00000370: 8d87 3d3d fa4a 433c f6d1 13bc 75ee d33c
00000380: 8607 89ba 2d43 02bd 8429 ad3b 9a53 82bd
00000390: 7c4f 0a3c 6e68 90bb c546 9f3b 1696 97bc
000003a0: f4e6 893d 2ba4 ed3c 3460 2cbd 1be4 063d
000003b0: efe4 33bd d64f 3eb9 4735 b8bd 82de e23c
000003c0: 3cf8 e63d 2b93 97bd 5271 d73d f78e d3bc
000003d0: f565 23be 90ec 10bd ef6e 12be 984f 9abd
000003e0: d4f8 fbbd dfe4 01be b701 e0bd f097 08be
000003f0: 9a02 b5bd 1068 8ebb 25c6 ef3c 0e59 93bc

290 f4 [8]
2.09269 1.0057757 -0.2505191 0.009945739 0.9923018 0.15147251 1.2981153 0.47912923
00000000: a2ee 0540 42bd 803f 0a44 80be 74f3 223c
00000010: 7e07 7e3f 9c1b 1b3e a428 a63f 6d50 f53e
