app/assets/a910/model_binary_pinjie_v1_320x320.onnx (onnx, 712801 bytes, 69 tensors)

deconv_4.0.weight f4 [64, 32, 2, 2]
000000 57 67 4d b9 c7 5d 80 3d 30 3c 9a bd ba 32 31 3e
       -0.0001958882 0.062678866 -0.07531011 0.17304507
000010 8a 8d 49 bd 9f c9 f3 3b 90 55 dd 3c 07 cc 86 bd
       -0.049207248 0.0074398066 0.027018338 -0.06581884
000020 20 76 15 3e f6 a9 5b bd 59 87 34 be 5c 0d 46 bd
       0.14595842 -0.053628884 -0.17629756 -0.048352584
000030 35 6c 25 bc c9 99 4d 3d 3d 4f 13 3e e4 9d 02 3d
       -0.010096599 0.05019549 0.14385696 0.031888857
000040 f9 08 4e 3d 65 3a 04 be c4 b4 4f 3e 72 2b 2a 3e
       0.050301526 -0.12912901 0.202838 0.16618136
000050 b0 24 1f 3e 42 f0 41 be 82 90 57 be 29 9a 6f 3c
       0.15541339 -0.18939307 -0.21051219 0.014624157
000060 4a 90 ce bd 76 f7 40 3d 63 e6 1f 3d 38 39 f6 bd
       -0.10086115 0.047110997 0.039038073 -0.12022632
000070 86 1b 1d be d4 7d 08 be d7 fd 11 be 2d e6 2a 3d
       -0.1534253 -0.1332925 -0.14256988 0.04172342
000080 ec b3 74 3d 47 2f 44 bd 0a a9 cc bd 34 93 83 bd
       0.0597419 -0.04789665 -0.09993179 -0.06424561
000090 c2 03 a2 bd b5 52 d4 bd 1a 40 73 3d e3 b5 96 3d
       -0.07910873 -0.103673376 0.059387304 0.07358911
0000a0 84 1d 92 3e e6 cc 45 3d 16 5c e6 bd 50 33 81 3d
       0.28538144 0.04829111 -0.11248033 0.06308615
0000b0 68 32 a0 3d 7d 85 12 be 51 e1 9d be 28 33 34 be
       0.07822114 -0.14308734 -0.30835965 -0.1759764
0000c0 07 7c 23 3e c1 d0 a9 bd 8e b4 93 3d d6 75 8c 3d
       0.15965281 -0.0829177 0.072121724 0.06858413
0000d0 e0 be bd bd 81 61 9a bc 2a 6a fe 3d 26 de fd bc
       -0.09264922 -0.018845322 0.12422593 -0.030989718
0000e0 02 28 6d be c2 bb 73 be b5 3a 0d be ab 87 ab 3d
       -0.23159793 -0.23802093 -0.13791926 0.08375486
0000f0 c4 02 22 be a5 13 22 bd 91 43 8e 3d d9 75 fc 3d
       -0.15821368 -0.039569516 0.06946481 0.12327165
000100 0b c9 6b bc 06 13 13 3e 38 e1 16 3e 37 e4 dc bc
       -0.014391194 0.14362726 0.14734352 -0.02696429
000110 ea 4b a7 bd ff 90 23 3e eb de 1c 3d a9 12 1d be
       -0.08168776 0.1597328 0.03829853 -0.1533915
000120 8e c5 f6 3d d3 e0 fe 3d 90 41 00 3d 9a e1 a1 3b
       0.12049399 0.124452256 0.031312525 0.004940224
000130 7d 72 ef bd 83 ac 59 be e8 4f a8 3b 63 da 6a 3e
       -0.11691759 -0.21257214 0.0051364787 0.2293487
000140 a5 1b 70 bc 37 51 08 be 41 89 c0 3d 07 20 a2 be
       -0.0146550285 -0.13312231 0.09401179 -0.3166506
000150 15 08 ef bd bf c7 9a 3d e7 74 f0 bd 23 0d 37 3e
       -0.116714634 0.0755763 -0.11741047 0.17876105
000160 00 16 f1 3d c1 ff ce bd 54 63 03 be 02 5f 49 bd
       0.11771774 -0.10107375 -0.1283086 -0.049162872
000170 27 2c bd 3b 7b 87 bc 3d 2b f1 ea bd b7 45 f7 bb
       0.0057730856 0.09205528 -0.114717804 -0.0075461525
000180 79 2f a6 3c b0 00 d6 bc 26 21 96 3d 80 96 96 3d
       0.020286309 -0.026123375 0.07330541 0.07352924
000190 f2 83 7e 3d 90 65 e1 3d 5a b0 a8 bc 86 23 03 3e
       0.06213755 0.110057 -0.020591903 0.1280652
0001a0 b2 f2 f9 bd b3 35 83 3d d0 24 07 be 6e 8a 86 3d
       -0.122044936 0.06406727 -0.13197637 0.06569372
0001b0 26 2c 54 3d a8 91 48 bd 20 8a 8d bc 6e 6a 07 3e
       0.051799916 -0.048967034 -0.017277777 0.13224193
0001c0 ac 81 83 3e 7a ee a7 3d 80 e6 c5 bd 5d 4d 09 3d
       0.2568487 0.08199783 -0.09663105 0.033521045
0001d0 fd 32 96 bd 8f 9c 9b be 50 7b d0 3d fc a2 06 3e
       -0.07333944 -0.30392882 0.1017977 0.13148111
0001e0 ad ae 16 be 71 0a ba bb 2a 58 0f 3d 0f bd e4 bb
       -0.14715071 -0.0056775142 0.03499619 -0.0069805454
0001f0 49 08 b6 bd b2 1f 0f be 99 df 97 3d da e4 95 be
       -0.08888299 -0.13976935 0.07415695 -0.29276162
000200 02 c3 7f bd c1 92 7d be 03 97 63 3e 37 c0 e6 bc
       -0.062441833 -0.24763013 0.22225575 -0.028167827
000210 01 19 21 3e 0b e9 44 be 6c b3 85 bd 31 de d7 bd
       0.15732194 -0.19229524 -0.06528363 -0.105404265
000220 ad 06 96 39 cc 83 85 3a 37 83 b5 3c c4 6a 9f 3c
       0.00028615203 0.0010186373 0.022157295 0.01946009
000230 28 ff 7a 3d a1 b9 5c be 36 b1 26 be 57 38 91 3b
       0.061278492 -0.21555187 -0.16278538 0.004431765
000240 ab 3c 09 3e 4e 0c 6a bd 5a 9d 7f 3c 66 6a 5e 3e
       0.13402049 -0.05714064 0.01560148 0.21720275
000250 18 46 21 bc cf f1 92 bc 0c 47 47 3d 4f 14 ca bd
       -0.009843372 -0.017937569 0.04865174 -0.09867155
000260 0e c4 59 3d 96 d6 f7 3d 38 54 01 be 08 f9 12 be
       0.053165488 0.12101476 -0.12629783 -0.1435281
000270 b3 11 ad 3e 72 35 02 3b 9a 81 5f bd 33 75 bb 3d
       0.33802566 0.0019868282 -0.054566957 0.09153213
000280 d7 d8 62 be ee 80 b0 3c 7c 42 cc 3b ea 38 09 3e
       -0.2215303 0.021545853 0.0062335115 0.13400617
000290 64 a4 d4 bc e4 54 d8 3d f7 ef 9d be 34 32 92 be
       -0.025957294 0.105630666 -0.3084714 -0.28553927
0002a0 72 b7 a5 bd 2e 93 55 bd 95 20 40 be d0 3c cc 3d
       -0.0809163 -0.052142315 -0.18762429 0.099725366
0002b0 dc 40 69 3d 0f 92 74 bd e8 48 5d be 6c 4a cc bc
       0.05694662 -0.059709605 -0.21609843 -0.02493783
0002c0 0d 16 fe bd 1f 0c 3c 3c 09 d4 c8 3d 39 59 00 3e
       -0.124065496 0.011477499 0.098060675 0.12534036
0002d0 76 9f 1a be a8 d4 25 be c0 34 59 bd 0f c1 8b bc
       -0.15099892 -0.16194403 -0.053028822 -0.017059831
0002e0 7f 70 0e be 1a 50 da bd d7 09 4d 3d 57 28 a6 bd
       -0.13910101 -0.106598094 0.050058212 -0.08113163
0002f0 2d 80 be 3d ce 03 55 3e 9e 74 f5 bc f0 53 04 be
       0.09301791 0.20802233 -0.029962834 -0.12922645
000300 67 6f c1 be 91 51 45 bc 25 3d b4 3c d5 2d 6c bd
       -0.37780306 -0.012043373 0.022001812 -0.057660896
000310 c7 4a bf 3d 9d 1b 34 be 1c 5a d8 3d 01 39 53 bc
       0.093404345 -0.17588659 0.10564062 -0.012892009
000320 83 f5 fa 3c 3f 26 03 3e eb a4 84 3d 64 08 5c 3d
       0.030634647 0.12807558 0.06476768 0.05371894
000330 83 47 d7 bd 5f 0d df bd 72 0e ad 3d 62 5b 1c 3c
       -0.10511687 -0.10891222 0.08450021 0.009543272
000340 39 d0 f9 bc 3a 43 0c 3d e7 1d 65 be ba 64 5e 3d
       -0.030494796 0.0342438 -0.22374688 0.05429528
000350 4d 40 e7 bd 13 9f a9 bc e1 a8 e2 bd b9 7e 4c be
       -0.11291561 -0.020705735 -0.11067367 -0.19970216
000360 1c 6f 4d be a7 33 56 3e 53 b5 e0 be 61 c5 79 ba
       -0.20061916 0.20918141 -0.4388834 -0.0009528008
000370 9a 70 7e bd e1 84 21 bc 4a 9c 2d bc 6c 19 f1 ba
       -0.062119104 -0.009858341 -0.010596344 -0.0018394417
000380 fa ef dc 3d 75 90 53 3d 80 c8 68 bd 4a 4f 18 be
       0.107879594 0.051651437 -0.056831837 -0.14873996
000390 bf 3f 17 be d3 05 26 be 7f b5 2c bd a2 79 80 3e
       -0.14770411 -0.1621316 -0.042165276 0.25092798
0003a0 0f f1 8a bd 5c fa bb 3d fc e1 fb bd 84 33 69 3d
       -0.067842595 0.09178612 -0.122989625 0.056933895
0003b0 b0 fd f2 bc f9 f1 2d bd 8c 01 1c 3e 5f 63 12 be
       -0.029661983 -0.04246709 0.15234965 -0.1429572
0003c0 a8 6a 56 be ef b3 9c 3d 6f fe a2 3c 1f 83 5d 3d
       -0.20939124 0.07651507 0.019896714 0.054080125
0003d0 8c a7 b0 bd 9b 02 e4 bd 83 25 5a 3d 6a 82 f0 3d
       -0.08625707 -0.111333095 0.05325843 0.117436245
0003e0 d9 ee 7e 3d 08 8c 81 3d 94 f5 44 3c bd dd 52 bb
       0.0622395 0.06325537 0.012021441 -0.0032175623
0003f0 5b 5a 15 3e 46 ed 56 bd e0 6c db bd 21 9c 1a bd
       0.14585249 -0.052472375 -0.10714126 -0.037746552

deconv_4.0.bias f4 [32]
000000 4b 9a 5f 3d 93 e3 96 bc 4b e5 15 bb 9c 29 c2 bc
       0.054590505 -0.018419063 -0.0022872265 -0.023701482
000010 d1 e1 97 3d f0 75 48 3d 28 9e 58 3d dd 3c 2f 3d
       0.07416118 0.0489406 0.052885205 0.042782653
000020 61 e3 a1 3d 2e f6 a0 bc e5 65 93 3d fb 0a 40 bd
       0.07904697 -0.019648638 0.07197169 -0.04688547
000030 36 0a 14 3a 9b a4 dd bc 32 5f 17 bd 26 5b 8d bc
       0.00056472735 -0.027056029 -0.03695602 -0.017255377
000040 5d c2 0e 3d 4f 95 d4 bb 48 4d 42 3b a1 5f 00 3d
       0.034853328 -0.0064875255 0.0029648114 0.0313412
000050 1a 20 6c bc ec 6e 74 3d ad 0b 35 bd d3 de 38 3c
       -0.0144119505 0.059676096 -0.044200588 0.011283594
000060 4b d3 2e bd 37 e9 16 3c 07 c8 1b bd 57 18 0f bd
       -0.042681973 0.009210876 -0.038032558 -0.03493532
000070 c7 b6 c7 bc ce fd 28 bd 5f 49 26 bc cf 08 a8 3d
       -0.024379147 -0.041257672 -0.010149329 0.08204805

deconv_4.1.weight f4 [32]
000000 13 f6 86 3f eb 70 87 3f bd 2f 6b 3f 4c c2 74 3f
       1.0543846 1.0581335 0.9186972 0.95608974
000010 c5 1b 6e 3f b4 2e 78 3f c1 cf 78 3f 5a fd 70 3f
       0.9301112 0.96946263 0.9719201 0.94136584
000020 bf 6e 88 3f 4e 6d 81 3f 21 6c 89 3f 42 d1 80 3f
       1.0658797 1.0111482 1.0736123 1.006386
000030 51 13 84 3f 45 3d 80 3f b6 00 7e 3f 98 1f 85 3f
       1.0318395 1.0018698 0.99219835 1.0400267
000040 bc e4 7d 3f c5 72 83 3f 29 65 74 3f 3e 06 84 3f
       0.99177146 1.02694 0.9546686 1.0314405
000050 21 3c 65 3f 6c d4 83 3f 79 e3 6f 3f 4b 79 77 3f
       0.89544874 1.0299201 0.9370647 0.96669453
000060 39 a3 74 3f bb f1 7c 3f df b1 8a 3f b8 e2 7d 3f
       0.9556156 0.9880635 1.0835532 0.9917407
000070 d9 68 6b 3f 2d d0 78 3f d2 b4 7e 3f c7 33 71 3f
       0.9195686 0.9719265 0.9949466 0.9421963

deconv_4.1.bias f4 [32]
000000 bd 49 76 be 5f 56 09 be 9c df 2b be 72 be 5e be
       -0.24051566 -0.13411854 -0.16784519 -0.21752337
000010 14 d1 84 be 3d 8d 7f be ac 3e 18 be bb 08 4f be
       -0.25940764 -0.24956222 -0.14867657 -0.20218174
000020 4c 76 7f be 67 a1 ba be 51 9f a7 be e9 b4 b3 bd
       -0.2494747 -0.36451265 -0.32738736 -0.0877474
000030 12 19 91 bd 8c 5c bd be c0 d3 0f be 18 81 06 be
       -0.0708486 -0.3698467 -0.1404562 -0.13135183
000040 0f ee e4 bd e6 29 d7 bd 73 e9 9d be d7 67 30 be
       -0.111782186 -0.10506038 -0.3084217 -0.17227112
000050 71 f2 a0 be ac 70 73 be a9 16 6d be e9 ea 15 be
       -0.31434968 -0.2377345 -0.23153175 -0.14640392
000060 36 10 89 be 29 bd a5 be 68 a8 82 be ca 32 75 be
       -0.2677018 -0.3237088 -0.2551911 -0.23945156
000070 00 f0 70 be 5d 08 81 be f4 80 c2 be db 23 42 be
       -0.23529053 -0.25201693 -0.37989008 -0.1895899

deconv_4.1.running_mean f4 [32]
000000 0d 23 3e be 60 d1 a4 be aa 94 87 be 6b fc 42 be
       -0.18568058 -0.3219099 -0.2648061 -0.19041602
000010 d7 87 9a be 41 1a 5a be 19 67 0d be eb f0 cd be
       -0.30181763 -0.21299078 -0.1380886 -0.40222868
000020 67 bf 1d be 36 74 53 3d 57 21 65 be f5 1a 9d 3b
       -0.15405045 0.0516245 -0.22376 0.0047944733
000030 67 19 4b be 53 ce 98 be ab 4a b4 be e0 9d 6a be
       -0.19833909 -0.29844913 -0.35213217 -0.22911787
000040 ff ff 8c be 8b df 33 be 2b 24 29 be 98 67 08 be
       -0.2753906 -0.17565744 -0.16517703 -0.13320768
000050 a2 4c c0 be c2 28 6c be b0 4e fe be 22 c0 8e be
       -0.37558466 -0.23062423 -0.4966941 -0.2788096
000060 c3 5d ce be b9 4d 8b be 7f d7 b5 be 2c 16 28 bf
       -0.4030591 -0.27207735 -0.35515973 -0.6565883
000070 7d 81 a5 be 06 79 74 be 0a 55 d1 bd 8d 64 10 be
       -0.32325354 -0.23874292 -0.10221298 -0.14100857

deconv_4.1.running_var f4 [32]
000000 b5 83 ad 3e 06 80 ba 3e 94 09 a9 3e eb e8 c6 3e
       0.33889547 0.364258 0.3301512 0.38849577
000010 32 c7 aa 3e 68 33 c2 3e a9 3a c4 3e 1b c3 9a 3e
       0.333551 0.37929845 0.38326004 0.3022698
000020 c2 f9 bf 3e 7d de 84 3e 5f 22 b0 3e e9 2f cd 3e
       0.37495238 0.25950995 0.34401223 0.40075615
000030 0e b1 a5 3e 81 ef be 3e 9b e2 cf 3e 17 36 ab 3e
       0.32361645 0.37292102 0.40602574 0.33439705
000040 3c be c1 3e e1 aa c7 3e df 33 9d 3e 07 ee 9f 3e
       0.3784045 0.38997558 0.30703637 0.31236288
000050 2c 43 9a 3e 82 63 c5 3e 31 2f 94 3e 25 9d cd 3e
       0.30129373 0.3855248 0.28942254 0.40158954
000060 ff 64 d5 3e 2e d1 ad 3e 1d 40 b8 3e e8 9d b5 3e
       0.41678616 0.33948654 0.35986415 0.35472035
000070 0a de a5 3e da 58 bd 3e 7b 94 92 3e 0a 58 b0 3e
       0.32395965 0.3698185 0.28628907 0.34442168

deconv_3.0.weight f4 [32, 16, 2, 2]
000000 10 5a 07 be 15 77 d7 bd 24 b9 52 3d ca 38 57 3e
       -0.1321795 -0.1052076 0.051446095 0.21017757
000010 2e 4e 09 be 13 70 06 be b3 21 16 3e e8 c8 04 3e
       -0.1340873 -0.1312869 0.14661293 0.12967265
000020 ca 55 76 bd eb 62 19 be 65 85 6a 3d 9d 63 8d bd
       -0.06014041 -0.1497914 0.05725612 -0.06903765
000030 fc cb 88 3d 81 ca 7b bd cd f9 7b bd 66 c4 87 bd
       0.06679532 -0.06147242 -0.061517525 -0.06629257
000040 89 68 31 bd 8a 7f 12 3d 07 13 08 be 14 8c f5 bd
       -0.043312583 0.035766162 -0.13288508 -0.119896084
000050 4f f0 2c 3e 32 80 0f bd 33 e2 00 be 40 ae fc 3d
       0.16888545 -0.035034366 -0.12586288 0.12337923
000060 6c 3f 05 3c fd 90 5a 3e 0e c3 a0 bd 0b 88 24 3d
       0.008132797 0.21344371 -0.07849704 0.040168803
000070 e9 bf 57 be fd 2e 0a bc 19 6b 7b 3d db a5 9e 3d
       -0.21069302 -0.008434054 0.061381433 0.07746478
000080 6a 1c 84 3d a3 3d 0b 3d 41 79 72 3d 99 b9 c2 bc
       0.06450732 0.03399433 0.059197668 -0.02377014
000090 d6 3f a2 3c 38 70 ae 3d 4f e0 22 3d 30 75 d8 3d
       0.01980583 0.08517498 0.0397647 0.10569227
0000a0 08 96 e2 3d 3f c7 16 be 01 12 d7 3c 08 9c 74 bd
       0.110637724 -0.14724444 0.026253702 -0.059719115
0000b0 2d cd 44 be 52 61 31 3e 9f 9e 84 bd 4c 54 c9 3c
       -0.19218893 0.17322281 -0.06475567 0.024576329
0000c0 32 23 28 be d9 c6 de bc ad 50 b3 bc 43 b2 8b bc
       -0.16419676 -0.027194427 -0.021889055 -0.017052775
0000d0 e8 3d 6a 3c bf fa 7e 3e 83 38 2a 3e 54 ab a2 bd
       0.014296986 0.2490034 0.1662312 -0.079428345
0000e0 25 e0 dd 3d 87 f3 f5 bd c3 39 2e 3e b5 ea 42 3e
       0.10833768 -0.1200934 0.17014222 0.19034846
0000f0 56 21 0d 3e 6c 36 2f 3e 2b 54 5f 3e d3 75 46 3d
       0.13782248 0.17110604 0.21809451 0.04845221
000100 22 62 f0 3d 27 5e 15 3e c5 dd 10 3e 86 9a 96 3d
       0.11737467 0.14586698 0.14147098 0.07353692
000110 2d 86 13 bd c6 78 d7 3d 84 fa 12 be 0c 35 a1 bd
       -0.036016632 0.105210826 -0.14353377 -0.07871446
000120 9e c6 d7 bd d7 67 40 3e 69 0e 06 be e5 5f aa bd
       -0.1053593 0.18789612 -0.13091435 -0.08319072
000130 ac 87 c0 3d 5b 6d ff bd d3 67 0b 3e 25 37 25 bd
       0.09400877 -0.1247203 0.13613825 -0.040335793
000140 50 54 d0 3d 71 53 cb bd 02 71 9e bd 4a cf ad be
       0.10172331 -0.099280246 -0.07736398 -0.33947212
000150 a0 4f fe 3b 4b 77 89 bd 73 8e ac 3d 19 be cc 3d
       0.007760957 -0.067122065 0.084256075 0.09997196
000160 74 00 a3 3c 9a e8 08 be 10 3a 31 be 69 fa 4e be
       0.019897677 -0.1336998 -0.17307305 -0.20212711
000170 34 ec 20 3e 68 24 d8 3c 84 62 c2 3d b2 78 68 bd
       0.15715104 0.026384547 0.094914466 -0.05675573
000180 87 1b 1c be 6b 39 1a be ea f7 34 be a0 1f bb be
       -0.15244876 -0.15060966 -0.17672697 -0.36547565
000190 7a d7 16 be b9 e1 46 3d d0 d3 b6 bd 72 63 15 be
       -0.14730635 0.04855511 -0.08927119 -0.14588717
0001a0 b3 a9 5d be fc 64 4d be f0 c3 4a bc 6f 37 63 be
       -0.21646766 -0.20058054 -0.012375817 -0.22189115
0001b0 c3 9f ff 3d 8b 36 dc bc a5 7f 29 be 3d 2d fd 3c
       0.12481644 -0.026881477 -0.16552599 0.03090536
0001c0 29 ec 5b be 82 a3 a4 bc a8 86 fd 3d f5 03 c0 3d
       -0.21476807 -0.020097498 0.12379199 0.09375755
0001d0 b9 23 d1 bb 68 5d aa be 76 2b c0 3d 11 a1 75 bd
       -0.0063824323 -0.33274388 0.093832895 -0.059968058
0001e0 be 2f 84 3c 27 b0 05 be 99 d8 dc 3c bf a5 f0 3c
       0.016136046 -0.13055478 0.02695875 0.029375909
0001f0 04 b6 70 3e 8c ae 47 be ac 3d 1b bd 25 4f ae bd
       0.23506933 -0.19500178 -0.03790061 -0.08511189
000200 6a 7c 11 3e 67 67 7f 3d d0 ba 7c bc 55 66 3f bc
       0.14207616 0.06235447 -0.015425399 -0.011682113
000210 d8 48 08 bd a8 94 a3 3d d5 fc 1e be 74 7a 94 bd
       -0.033272594 0.07987338 -0.15526135 -0.072499186
000220 f1 8c b1 bb 0e 98 20 bc 56 4f 76 be a9 f9 3f bd
       -0.005418413 -0.009801878 -0.24053702 -0.046868954
000230 59 88 ae 3d 6d cc 57 3e 25 d8 ad bd 6f 49 49 bd
       0.085221 0.21074076 -0.08488492 -0.049142297
000240 4b 41 aa bc 6b 1e 96 3d 3c 03 27 bd 78 df ba 3c
       -0.020783087 0.073300205 -0.04077457 0.022811636
000250 89 22 14 be ca f9 29 be 3e 19 e0 3c 30 90 f1 3c
       -0.14466299 -0.16599193 0.027355786 0.0294877
000260 63 92 ab bc d7 06 c5 3c d3 41 74 be d5 16 ec 3d
       -0.020943826 0.024051113 -0.23853235 0.11527792
000270 d5 dc f4 3d 35 93 05 be 04 d8 3d be 6a 52 e4 bd
       0.11956183 -0.13044436 -0.18539435 -0.11148532
000280 5b d9 01 be 29 78 67 3e 39 c2 9e bb 5b 99 cd 37
       -0.12680571 0.22604431 -0.0048449305 2.4509316e-05
000290 c6 54 16 3c 3e 77 0c be 7b 15 a7 bd 4c 60 63 be
       0.009175485 -0.13717362 -0.08158394 -0.22204703
0002a0 19 46 da bd 95 7f e8 bc f2 7d 5c 3d 26 c3 57 be
       -0.10657901 -0.028381148 0.05383105 -0.21070537
0002b0 f5 b8 1c 3e 5f 46 dc 3d a9 3d 3e bd fb 27 52 bd
       0.1530493 0.1075561 -0.046445522 -0.05130766
0002c0 ad f7 75 3d be ac b4 3d ec ac 85 3d ac d6 85 be
       0.060050655 0.088220105 0.06527123 -0.26140344
0002d0 2d da b2 bd b4 75 08 3e 28 00 12 3e 64 35 6a 3d
       -0.0873302 0.1332615 0.14257872 0.057179824
0002e0 87 20 d9 bd 6c 40 a9 bd a6 4c 19 3e 89 18 45 bd
       -0.10601907 -0.082642406 0.14970645 -0.0481191
0002f0 1e a4 a6 bd 47 37 6d bc 25 f3 be bd ee 61 f7 bc
       -0.081367716 -0.014478511 -0.0932372 -0.030198064
000300 5b 44 5e 3e a1 40 6b 3d aa 2b 16 3e 84 db c3 3d
       0.21705763 0.05743468 0.14665094 0.09563354
000310 7e 5d e0 bd 69 0b 07 3e b3 fd 41 be f4 45 8f 3d
       -0.10955332 0.13187946 -0.18944435 0.069957644
000320 05 36 58 be 24 b3 d1 bd de 1b a0 3d 74 15 c6 bd
       -0.21114357 -0.102392465 0.07817815 -0.096720606
000330 5b 08 b0 3c fe 29 d2 bd 8d 64 0f 3e 3c ab 23 be
       0.02148836 -0.102619156 0.14003201 -0.1598329
000340 3c ae 27 be d2 3a df bb e4 d0 03 be 37 9c 0f bd
       -0.16375059 -0.006812432 -0.12872654 -0.035061087
000350 c6 60 1c 3d 4c 43 24 3d b9 b0 83 bc be 07 76 3e
       0.038178228 0.04010324 -0.016075479 0.24026391
000360 4a 6d 14 3d 33 6a 76 bd 04 1f 81 bd 84 69 43 3d
       0.03623704 -0.060159873 -0.06304744 0.04770805
000370 95 57 97 bd ae 9e 87 bb aa 7a 54 3e 62 8a 2a be
       -0.07389752 -0.004138789 0.20749918 -0.16654351
000380 aa 0f eb 3d 43 32 68 3e b7 49 16 3e 0e 24 88 3d
       0.11477597 0.22675423 0.14676557 0.06647502
000390 16 3e 1e 3d 24 c0 12 3e a5 df 49 3e 24 6d 08 3e
       0.03863343 0.14331108 0.1971422 0.13322884
0003a0 93 5d 50 3d 4a 5e 15 be c4 ea 84 bd 09 9a d9 bd
       0.05087049 -0.1458675 -0.064900905 -0.10625083
0003b0 5a 57 fd bc 62 de 54 3c dd ce 29 be 74 68 cc 3d
       -0.030925442 0.012992473 -0.16582818 0.0998086
0003c0 12 55 08 3e 90 6b d1 bd 56 87 bc bc 46 2f 97 bc
       0.13313702 -0.10225594 -0.023013752 -0.018455159
0003d0 19 08 8b bd 75 f6 d9 3c 58 5c 00 3e 35 99 45 bd
       -0.06788654 0.026606778 0.12535226 -0.048241813
0003e0 9a a3 ac bd f3 cf 1c 3c 44 5d 91 bc 35 3d 2f be
       -0.08429642 0.009571063 -0.017744668 -0.17113192
0003f0 76 62 75 bd d8 4a 66 bd 48 b5 76 bd d5 ff 9e 3d
       -0.059908353 -0.05622372 -0.060231477 0.0776364

deconv_3.0.bias f4 [16]
000000 7b 8e c0 bc 8c 4d 55 3d 21 bf b2 3d 90 ff df 3d
       -0.02350544 0.052075908 0.08727861 0.109374166
000010 d8 62 44 3d bf 55 b8 bb d0 0a 76 bd 31 be f3 bd
       0.047945827 -0.005625456 -0.060068905 -0.119015105
000020 5c ea df 3d 07 6f ae bd 28 6e d3 bc a1 96 a6 bd
       0.109333724 -0.085172705 -0.025809363 -0.08134199
000030 df 58 b2 bb 21 de b6 3d 75 5a 5f 3d b5 24 d8 3c
       -0.005442723 0.089290865 0.054529626 0.02638469

deconv_3.1.weight f4 [16]
000000 2c 6b 68 3f af c2 77 3f 8a 0f 8d 3f 35 26 85 3f
       0.9078853 0.9678144 1.1020367 1.0402285
000010 44 c7 8a 3f f2 4b 66 3f ad 91 77 3f ee d1 71 3f
       1.0842061 0.89959633 0.9670666 0.9446095
000020 e3 31 80 3f 22 cf 80 3f c7 b8 85 3f 19 f9 89 3f
       1.0015224 1.0063212 1.0447015 1.0779144
000030 88 e7 80 3f ae 14 72 3f 21 17 87 3f 84 af 76 3f
       1.0070658 0.94562805 1.0553933 0.96361566

deconv_3.1.bias f4 [16]
000000 6e 7c 30 be 06 87 c2 be df 02 e4 3d fa ce 1c be
       -0.17234966 -0.3799364 0.1113336 -0.1531333
000010 bb 6b d1 3d c6 93 47 be 43 0b 02 3c 1e 48 e0 3d
       0.10225626 -0.19489965 0.007937255 0.10951255
000020 09 0a 19 bd 1d b3 86 3d a5 76 48 3d a4 7e e5 3d
       -0.037363086 0.06577132 0.048941273 0.112057954
000030 ec 5e 15 bb 6b 58 9b 3d fb 00 90 3d 43 a8 38 be
       -0.0022792174 0.07585224 0.07031437 -0.18032937

deconv_3.1.running_mean f4 [16]
000000 a1 2d 90 be 98 21 00 3d 40 62 be be c7 20 00 3d
       -0.28159812 0.031282037 -0.37184334 0.03128126
000010 1b 1d 98 bd b2 ba 49 be b0 87 9f be bb 04 08 bf
       -0.074274264 -0.19700125 -0.3115821 -0.5313222
000020 08 f2 70 bd 11 1e 76 be d8 62 a8 be 88 04 fd be
       -0.05882457 -0.24034907 -0.32887912 -0.4941752
000030 85 04 5a be de 30 10 be ae 07 18 be 21 ee c7 bd
       -0.21290787 -0.14081141 -0.1484668 -0.09762216

deconv_3.1.running_var f4 [16]
000000 84 b0 86 3e e3 c2 2c 3e 48 43 f2 3e ae ee 9a 3e
       0.26306546 0.16871218 0.47316957 0.30260223
000010 e7 cd b2 3e 60 76 1b 3e 48 d3 8b 3e 96 b6 9b 3e
       0.34922716 0.15181875 0.27309632 0.3041274
000020 08 88 71 3e 06 49 87 3e 06 b6 00 3f 5a 78 c7 3e
       0.23587048 0.264229 0.50277746 0.38959008
000030 a7 ec d8 3e 0e f4 91 3e 18 e9 9f 3e 5e 8c 4a 3e
       0.4236805 0.2850651 0.31232524 0.19780108

deconv_2.0.weight f4 [16, 8, 2, 2]
000000 10 c2 54 be 90 37 94 3d 3f 85 41 be 4f 40 1f be
       -0.20777154 0.0723716 -0.18898486 -0.15551876
000010 e1 4e 83 39 c0 8d 2b bd 45 93 4d 3b b5 fa 9e 3d
       0.00025045036 -0.04188323 0.0031368297 0.07762662
000020 b2 fa ed bd 36 3b 7b be 48 7d bc bd a6 7d 9b 3d
       -0.11620082 -0.24534306 -0.09203583 0.07592325
000030 75 2e 82 3e 1f de fa bd 9e 74 36 3e a1 80 ce 3c
       0.2542607 -0.122493975 0.17817923 0.02520782
000040 5d f9 54 3e 9f 8c 19 3e 75 20 82 3d 64 ee a6 be
       0.2079825 0.14995049 0.06353847 -0.32603753
000050 fb bc a8 bd 86 a0 5a 3d 35 9b a9 bd 86 a7 37 bd
       -0.0823917 0.053375743 -0.082815565 -0.044837497
000060 17 54 08 be 6b 7c 3a bc f2 1c ff 3d cf 2c 4e bc
       -0.13313328 -0.011382203 0.12456693 -0.012583925
000070 98 ec 17 3e c5 e2 ae 3d 2a 57 69 3d 0a 51 05 be
       0.14836347 0.085393466 0.05696789 -0.13019195
000080 f3 e2 df bd 82 ee 29 bd fa 26 a7 bd de b6 38 bd
       -0.10931959 -0.041487224 -0.08161731 -0.04509627
000090 cd 80 ad be 58 a2 38 be 9f 26 21 be 28 65 8b 3d
       -0.3388733 -0.18030679 -0.15737389 0.068064034
0000a0 52 6b 5f be 37 b8 7c be c4 1b 40 3e 8b 58 a4 bd
       -0.21818283 -0.24679647 0.18760592 -0.08024701
0000b0 e2 bd 3a 3d c8 85 01 3e ab 8f d6 3d ad b5 00 bd
       0.045591243 0.1264869 0.10476621 -0.03142326
0000c0 76 63 b0 3e 05 91 a4 3c b7 0f 15 3e 8f 3a 2a 3d
       0.34450883 0.020088682 0.14556776 0.041559752
0000d0 82 b7 d8 bd 0c 4d 1e 3b d6 df 4c 3e 85 a6 84 3e
       -0.10581876 0.002415481 0.20007262 0.25908294
0000e0 ec a0 75 3c 1a ab 0c 3e 75 a2 9c 3e 5d f6 4d 3e
       0.01499198 0.13737145 0.30592695 0.20113511
0000f0 4f ff a8 3d 5e 0c 68 bc ae 3c e1 3d 0d 06 ad 3c
       0.08251821 -0.014163105 0.10997902 0.02112105
000100 34 fe 4e be 71 7b 97 bd cc 19 ef 3d f3 1a 34 be
       -0.20214158 -0.073965915 0.11674842 -0.17588405
000110 ca 9c 63 bc fc e2 18 3e 67 ef 9d 3e 04 65 f5 bd
       -0.013892362 0.14930338 0.30846712 -0.11982158
000120 81 ba 06 be 9c f5 0c be 3d 99 1f 3d 06 8f 72 be
       -0.13157083 -0.13765568 0.0389645 -0.23687372
000130 78 d8 dc be 50 40 21 bc fc 3d 3c bc b1 2f 26 3d
       -0.43133903 -0.009841993 -0.011489388 0.040572826
000140 26 9e a9 be 6b 47 a7 3d cb d2 14 3c ae 60 b6 3d
       -0.3312847 0.08167919 0.00908346 0.08905159
000150 4f 80 7e be 74 62 10 3e 00 c1 d7 be e0 fe 14 3e
       -0.24853633 0.14100057 -0.42139435 0.14550352
000160 83 bd 0a bd aa bb f4 bc e2 b0 10 be 3c e0 1b 3e
       -0.03387214 -0.029874641 -0.14129975 0.15222257
000170 c9 bc 94 3e 10 c6 26 3e a5 83 89 3c 33 d0 8c bd
       0.29050282 0.16286492 0.016786406 -0.06875648
000180 b7 76 50 3e 79 f0 1a 3d cc 48 1b be a5 7d 8b 3d
       0.20357786 0.03782699 -0.15164489 0.06811074
000190 53 3c 43 be bd 61 00 be de 32 78 bc ff a3 bd 3c
       -0.1906598 -0.12537284 -0.015148846 0.023149488
0001a0 12 5e 62 3e d7 b2 91 3c 62 db 5e bd 46 88 69 3d
       0.22106197 0.017785473 -0.05440844 0.057014726
0001b0 b0 aa 1d be b9 e3 7b 3e e0 c0 8d 3e a8 79 63 3e
       -0.15397143 0.24598588 0.27686214 0.22214377
0001c0 83 12 4d be 85 30 3a 3d 42 2b 94 3d c8 df ba bd
       -0.20026593 0.045456428 0.07234813 -0.09124714
0001d0 5a d9 8b be 24 38 12 3d 97 2b 64 3e 4d d4 56 bc
       -0.27314264 0.03569807 0.22282253 -0.01311214
0001e0 be c1 44 3e 9e 41 09 be e1 0c d3 bd 68 1e b3 bd
       0.19214532 -0.13403937 -0.10305191 -0.08746034
0001f0 52 10 e1 bc 9e 38 85 bd b2 f1 f4 bc 69 8e 0c bd
       -0.027473602 -0.065049395 -0.029900406 -0.0343155
000200 a8 09 87 bd db 2c 21 bd 9d 33 99 bd 6f 79 38 3d
       -0.06593639 -0.039349418 -0.074805476 0.045037683
000210 c0 10 86 be ff f0 10 bd 88 5d 6a be 88 4a 08 be
       -0.26184654 -0.03538608 -0.22887242 -0.13309681
000220 bf 56 5f 3c f6 57 38 3d 49 1a 3a bd fd 24 22 be
       0.013631522 0.04500576 -0.045435224 -0.15834422
000230 40 62 41 be 19 a3 df bd 89 24 eb 3d c9 bb 81 be
       -0.18885136 -0.1091978 0.11481578 -0.2533858
000240 71 74 cd bd d2 c0 3e 3c 40 e9 16 be ba d2 cb 3d
       -0.10031975 0.011642652 -0.14737415 0.09952302
000250 40 85 28 be 74 d5 66 3e a4 2e 83 be e3 90 cd bc
       -0.16457081 0.22542363 -0.2562152 -0.025093501
000260 56 46 a9 bd f2 eb b5 bd 99 2a 9e 3d d0 b7 3f 3e
       -0.08265369 -0.088828936 0.077229686 0.18722463
000270 32 cb e4 bc f7 88 b4 bd 3d a1 86 be dd 78 4f be
       -0.027928922 -0.088151865 -0.2629489 -0.2026095
000280 ca 66 28 3e ff a1 8f be 07 36 5d bd e9 a0 75 be
       0.16445461 -0.2805328 -0.054006603 -0.23987164
000290 9d 09 7b be 8b b8 2f bd bf 47 d6 3d 58 95 c6 3d
       -0.24515386 -0.042900603 0.10462903 0.09696454
0002a0 e7 38 86 be 7b 6c e8 3d 2a 93 33 3e ca 63 15 3e
       -0.26215288 0.11348816 0.17536607 0.14588848
0002b0 94 11 97 be 2a 1e 13 3e e6 d5 d7 bd 8d 09 ac 3d
       -0.295056 0.14366975 -0.10538845 0.08400259
0002c0 07 d3 11 3e 8b 32 82 bd 99 42 f0 3d 53 1b 4e 3c
       0.14240657 -0.063572966 0.117314525 0.012579757
0002d0 9a 34 70 be 3b a0 0f be 75 ca ed bd 6b 2f a4 bd
       -0.23457566 -0.14025967 -0.11610881 -0.08016857
0002e0 ae 02 19 be c4 38 71 3d 23 fc bc 3c 0a f7 8c be
       -0.14942428 0.058892027 0.023069447 -0.27532226
0002f0 cd 5c 53 bd de 8c 9f 3d 5d ad 14 be d3 97 1e 3d
       -0.051602174 0.0779054 -0.14519258 0.03871901
000300 fc 9c 73 be d2 f2 37 bd b3 40 de bd fb 96 9e 3d
       -0.23790354 -0.044909306 -0.10852184 0.07743641
000310 94 58 9e 3d 31 f8 24 bd 85 ba d2 3c 4c ef a7 bd
       0.07731739 -0.040275756 0.025723705 -0.08199939
000320 27 09 19 bc 89 bc 0d bd cd 4e 62 3d a4 85 19 be
       -0.009340561 -0.03460363 0.05525093 -0.14992386
000330 d9 55 7c 3d fd 8a 22 bc 30 b3 a2 bd 61 b3 c8 bc
       0.06160531 -0.009920833 -0.079443336 -0.024499597
000340 c9 c8 34 be b1 7c b5 bd c8 26 f2 bc ae 69 91 be
       -0.17654718 -0.088616736 -0.029559508 -0.2840094
000350 0c d7 b0 bd 42 23 23 be 14 21 e8 bc fc 40 6f bd
       -0.08634767 -0.15931419 -0.028336085 -0.058411583
000360 5e 2e 1f be fe 36 8b 3e 1e ab 0f 3e b1 14 ed bc
       -0.15545031 0.27190393 0.1403012 -0.02894053
000370 5b dd 14 3d e6 e5 40 3e fc 95 67 3d c5 85 dd bd
       0.036343914 0.188377 0.05653952 -0.1081653
000380 ba d6 c5 bd 4e 2b b4 3c c4 3f b2 bd a2 ac 0e 3e
       -0.096600965 0.021993306 -0.087035686 0.13933042
000390 85 5a 90 3d 59 96 ef bd 0f 6b 32 3e 18 f5 48 3d
       0.07048515 -0.116985984 0.17423652 0.049061865
0003a0 96 f0 1b ba 1e eb 1d 3e 60 38 53 3e 17 de b9 bd
       -0.0005948631 0.15421721 0.20626974 -0.090755634
0003b0 78 35 81 bc 6d 5d d3 bd 80 70 8b bd 58 d9 2c be
       -0.015772566 -0.10320554 -0.06808567 -0.16879785
0003c0 b3 25 7b be 40 9b 96 3d ab 1a 97 bd 09 46 51 3e
       -0.245261 0.0735383 -0.073781334 0.20436873
0003d0 94 a8 79 be 2c 79 8e 3e 25 81 52 3e dd 2e 3b 3d
       -0.24380714 0.27826822 0.20557077 0.04569899
0003e0 da 9f 1c 3d c9 b7 10 3c 88 e6 eb 3d 68 40 0e 3e
       0.038238384 0.00883288 0.1151858 0.13891757
0003f0 44 f4 8a be 7e a4 e6 3c 88 dc 2d 3d dd 83 51 3d
       -0.27139485 0.028154608 0.042446643 0.051151145

deconv_2.0.bias f4 [8]
000000 2d f7 29 be d0 71 9a 3d d5 e7 19 3b 5d df 05 3e
       -0.16598196 0.07541239 0.002348413 0.13073488
000010 85 b8 86 bd f0 c0 27 3e 0c e4 15 3e ee 6f eb bd
       -0.06578163 0.16382194 0.14637774 -0.11495958

deconv_2.1.weight f4 [8]
000000 dc 1d 70 3f 87 e6 7b 3f 44 43 7a 3f af 55 90 3f
       0.9379556 0.9839863 0.9775889 1.1276149
000010 a8 ef 6f 3f 15 0a 81 3f 4e aa 7d 3f d2 94 87 3f
       0.9372506 1.0081202 0.9908799 1.0592291

deconv_2.1.bias f4 [8]
000000 2b dc 81 3d b6 be 81 3e ba 46 08 3e 2f 54 5e 3d
       0.06340822 0.25340813 0.1330823 0.054279502
000010 67 6a b3 3d a9 32 25 3e 13 6e 3c bd 65 fa 77 3d
       0.08760529 0.16132607 -0.046003412 0.06054153

deconv_2.1.running_mean f4 [8]
000000 de ca e2 be 21 84 c1 bd a6 85 fa bd 75 ba b0 bd
       -0.442954 -0.0944903 -0.12232523 -0.08629314
000010 45 03 39 bd 20 d4 29 be d5 d4 45 3e 74 e0 96 be
       -0.045169134 -0.16584826 0.1931947 -0.2946812

deconv_2.1.running_var f4 [8]
000000 4d 0b 13 3e 64 66 7e 3e ab f5 36 3e ee df 8f 3e
       0.1435978 0.24843746 0.17867152 0.28100532
000010 fa 26 f6 3d 6d 71 95 3e 24 a5 2b 3e 5c 9a 28 3e
       0.12019153 0.291881 0.16762215 0.16465133

deconv_1.0.weight f4 [8, 4, 2, 2]
000000 d8 fa c2 3c e4 20 0d 3e 42 36 d5 bd 93 b9 7b be
       0.023801252 0.13782078 -0.104107395 -0.2458251
000010 69 7d 81 3e cb bb 87 3e 9d 51 26 bd 92 c5 c4 3d
       0.25290993 0.26510462 -0.040605176 0.09607996
000020 04 8f d7 bd 5e 75 b8 3e ea e4 75 3d a7 07 77 3e
       -0.10525325 0.36027044 0.060032763 0.24124013
000030 41 ab 2d bd ef 58 62 3e 0a 90 5e be a4 6a ce 3c
       -0.04239965 0.22104238 -0.21734634 0.025197335
000040 83 05 77 3e 1c 8a d9 3d 6e 5b e3 3e 16 c1 e5 bd
       0.24123196 0.106220454 0.44405693 -0.11218469
000050 e2 77 5f bd 81 02 d5 3d 66 61 54 3c 58 2d 0e 3e
       -0.05455769 0.10400868 0.012962675 0.13884485
000060 9c 47 a7 be cc 00 96 be 0b 43 b1 3d 75 88 42 3d
       -0.3267182 -0.29297483 0.086553656 0.047493417
000070 10 c3 1d bc fa 5b 21 be 74 fa 1b bd df c7 3e 3e
       -0.009629026 -0.15757743 -0.038080648 0.18630932
000080 bb 0f 88 bd 8a 43 b6 3d d7 df 83 3b e2 e6 5d 3e
       -0.06643625 0.08899601 0.0040244865 0.21670106
000090 4c 69 a1 be d3 87 6e 3e fe 49 2a 3e fa 76 ea 3d
       -0.31525648 0.23294 0.16629788 0.11448474
0000a0 1b 72 8a be dc a3 84 3d 89 43 9d 3e 8f b5 71 3d
       -0.2704018 0.06476566 0.30715588 0.05901104
0000b0 43 8f 1b bd e1 e4 9a bd 12 44 78 3e 21 52 ba 3c
       -0.037978422 -0.075631864 0.24244717 0.02274424
0000c0 3b 9a de 3d 10 53 63 3e e2 fe 13 be af c6 43 bd
       0.10869261 0.22199655 -0.14452699 -0.0477969
0000d0 63 cc b3 3c 2f 1a 65 bd d0 5b 84 be cc e7 0e be
       0.021948045 -0.055933174 -0.25851297 -0.13955611
0000e0 ef 8e 2d bc 3c ef 1e 3e cb 68 20 3e 0b 64 20 bd
       -0.01059316 0.15520948 0.15664975 -0.03915791
0000f0 4e 0b 78 3e 3b d8 c0 3d 8b 02 4d bd 56 f7 51 be
       0.24223062 0.09416243 -0.050051253 -0.20504507
000100 bd 2c 21 be 15 f7 ab 3d bd 75 1f bd 3f 44 7d be
       -0.15739723 0.083967365 -0.038930643 -0.24733065
000110 fe 56 3a be 3c 9c f2 bd bd ef 27 bd eb 34 fe 3d
       -0.18197247 -0.118462056 -0.041000117 0.12412437
000120 ec 93 20 be ab 82 34 3e 0a 01 12 be 48 f2 38 be
       -0.15681428 0.17627971 -0.14258209 -0.18061173
000130 46 d3 b9 3e 0d e7 88 3e c5 3d 35 be a0 47 30 be
       0.36294 0.26738778 -0.17699344 -0.17214823
000140 9c 36 f4 ba 6e 36 5e be db c9 a1 bd ad b7 c8 3c
       -0.0018631998 -0.21700451 -0.07899829 0.024501646
000150 58 c3 80 3c cd 7a 66 bd 0c 48 39 3e e1 69 c0 3d
       0.015718147 -0.056269456 0.1809389 0.09395195
000160 cc 22 97 be 48 62 1e bd cb 53 3f 3d 1a 6c 99 3b
       -0.29518735 -0.038667947 0.04671077 0.004682076
000170 90 ba 27 be 1e 39 80 bc ad 28 a1 3b 03 d4 6c bd
       -0.16379762 -0.015652236 0.004918179 -0.057819378
000180 c6 b1 09 3e 4f bc e1 3d 41 d4 8f bc d1 9e 99 bd
       0.13446721 0.11022245 -0.017557265 -0.07500995
000190 d0 9c cc bd cd a9 d8 bb 98 04 a4 3e 71 a4 90 bd
       -0.09990847 -0.0066120387 0.32034755 -0.07062615
0001a0 4b 4a 20 be bf f8 62 3e 76 eb 00 3e a7 36 0c 3e
       -0.1565334 0.22165202 0.12589821 0.13692723
0001b0 ad d6 b8 3d ad 72 eb 3c 2e 15 d1 bb 95 14 8c bd
       0.09025321 0.028741205 -0.0063806986 -0.06839863
0001c0 8a 74 77 be 57 92 a0 3d 50 14 5c be e1 77 53 bd
       -0.2416555 0.07840412 -0.21492124 -0.051627997
0001d0 21 38 46 3c a4 08 8d be a5 9f 9d be ab c4 58 3e
       0.012098343 -0.27545655 -0.30785862 0.21168773
0001e0 0d f6 c3 3d 33 61 7f be 02 d1 dd 3c bf ce 3d be
       0.09568415 -0.24939422 0.027077202 -0.18535899
0001f0 11 3b d3 3c a3 6a 91 3e 1e 15 22 bb 23 50 5c be
       0.025785001 0.2840167 -0.0024731825 -0.21514945

deconv_1.0.bias f4 [4]
000000 bf ef 33 3e 21 1a 14 3e 64 e3 6f be c3 7f 0d 3e
       0.17571925 0.14463092 -0.23426586 0.13818268

deconv_1.1.weight f4 [4]
000000 f7 a8 7f 3f 8b b9 7a 3f c0 5e 80 3f 42 0b 84 3f
       0.99867195 0.97939366 1.0028915 1.0315936

deconv_1.1.bias f4 [4]
000000 5a ad 7d 3d c6 09 21 3d 88 a6 79 bc 10 7f 44 3e
       0.0619329 0.03931596 -0.015237458 0.19189095

deconv_1.1.running_mean f4 [4]
000000 d3 c8 1f 3e f3 d5 23 3e fc be 80 be 94 99 47 3e
       0.15603952 0.15999584 -0.2514571 0.19492179

deconv_1.1.running_var f4 [4]
000000 14 0f 08 3e 27 66 01 3e 3b e6 47 3e 07 64 1e 3e
       0.13287002 0.12636624 0.1952142 0.15467845

280 f4 [4, 1, 3, 3]
000000 25 69 fb bf 87 9d 1f c0 5c f0 39 c0 4b c3 a8 be
       -1.9641463 -2.4939897 -2.9052954 -0.32961497
000010 39 6a d1 3f 43 b3 e4 be 03 c3 89 40 85 56 96 40
       1.6360542 -0.44668016 4.305055 4.6980615
000020 9a c1 20 c0 5e 16 8c 40 9b c1 01 40 52 7c 59 3f
       -2.5118165 4.3777304 2.0274417 0.8495532
000030 1c 6c 44 3e 9b 7c 60 c0 fd c9 a9 c0 4d eb 53 40
       0.19181865 -3.5076053 -5.305907 3.3112366
000040 b0 14 ee bf 00 e4 9a bd c2 2d 35 be 9f 7c cc 3f
       -1.8600063 -0.07563019 -0.17693236 1.5975531
000050 7b 2b f0 bf 11 db ab be e7 8d 76 40 e3 35 63 3f
       -1.8763269 -0.33565572 3.852411 0.887541
000060 12 8f e9 3e c5 cd 2c be f2 d9 18 bf 9c 2b 9f 3e
       0.45616966 -0.1687537 -0.5970756 0.3108796
000070 93 15 df bf 07 2e e9 3f f1 b6 00 bf 88 eb 1e c0
       -1.7428459 1.8217171 -0.50279146 -2.4831257
000080 65 44 96 3e 98 56 3f be 7f 28 aa bf 6b ba 2c 3f
       0.29349056 -0.18685377 -1.3293608 0.6747195

281 f4 [4]
000000 ec f6 29 3e a9 8c 48 3e 3a 7e 36 c0 72 5d 22 40
       0.165981 0.19584908 -2.8514543 2.5369534

283 f4 [4, 4, 3, 3]
000000 a7 1e c6 3d 47 d3 98 be 2d 8a 9a be 2b 51 9b 3d
       0.09673815 -0.29848692 -0.30183545 0.07583841
000010 65 36 96 be 0b ad ca be d7 31 16 3e 46 ea a6 3c
       -0.29338375 -0.39585146 0.1466745 0.020375382
000020 ac 43 9f be 8b ab 03 bd 6f cc 53 3e 2c 84 37 3e
       -0.31106317 -0.032146018 0.20683454 0.17921513
000030 80 3a 16 3e 1b 10 6f bc 00 50 3b 3e 8a d0 3e 3e
       0.14670753 -0.014591242 0.18292236 0.18634239
000040 b4 94 63 3e 79 f9 8a be 11 07 ab 3e d8 75 13 be
       0.22224694 -0.27143458 0.3340383 -0.14400423
000050 70 1b a3 3d 50 92 ef 3d 0c fe 72 bd 4d 9b 9f be
       0.07964218 0.11697829 -0.05932431 -0.31173173
000060 6f 9b 5e bd 6f 61 96 3d 32 58 af be ff a6 80 be
       -0.05434745 0.07342803 -0.34246975 -0.25127408
000070 6b 22 a2 bc 9a bf 95 3d de 67 44 3e 38 7c a5 3d
       -0.019791802 0.07311936 0.19180247 0.080803335
000080 53 88 79 3e ea 79 0e be c7 7f b0 be 2a 36 51 3e
       0.2436841 -0.13913694 -0.34472486 0.20430818
000090 02 82 09 be 59 de 90 bc 53 01 0a 3e b1 9d a2 bd
       -0.134285 -0.017684149 0.13477068 -0.079402335
0000a0 90 83 14 3c b7 6b 44 3e 11 cf 1c be 0c f9 26 bd
       0.00906457 0.19181715 -0.15313365 -0.040764853
0000b0 70 3e d5 bd 13 05 4f be 69 9a 60 bb 4b 1d 1e bd
       -0.104123 -0.2021678 -0.0034271723 -0.038602155
0000c0 e8 d1 ca be da 09 8b be 10 a7 7d bd e9 f7 96 be
       -0.3961327 -0.27155954 -0.0619269 -0.29486015
0000d0 0e 73 0d bf 7e 12 09 3d 82 8c 5c be f1 9d a9 be
       -0.55253685 0.0334649 -0.21537974 -0.33128312
0000e0 bf 78 08 be ff 99 67 be 06 af 78 3e 87 ec ac 3d
       -0.13327311 -0.22617339 0.24285516 0.084435515
0000f0 bc 80 40 bc c2 fc af 3e 11 3d eb 3e cf f1 53 3e
       -0.011749443 0.34372526 0.45945027 0.20697711
000100 96 e6 8e 3e e6 81 5e 3e 31 d6 22 3e eb b7 1b 3e
       0.27910298 0.2172924 0.1590202 0.15206878
000110 4e 3a 14 be f7 6c 25 3b 2e 3a 0e bf 0d 47 b3 be
       -0.14475366 0.002524195 -0.55557525 -0.35015145
000120 6e 9b b2 3d f7 16 95 bc f7 11 bb bd 02 0a f4 bd
       0.08721052 -0.018199427 -0.09134286 -0.11915971
000130 f3 62 54 bd 31 61 3f 3d 5a 03 c5 3d f5 33 99 3d
       -0.051852178 0.04672355 0.0961978 0.07480613
000140 89 30 19 3d d9 3c 53 bb ae e9 d3 bd e9 72 a7 bc
       0.037399802 -0.0032232313 -0.10347305 -0.020440536
000150 eb 4f a1 be b5 59 a0 3d ec 43 83 bb b3 e1 ae bd
       -0.31506285 0.0782961 -0.0040058997 -0.085391425
000160 e1 56 6b bd 05 71 bb 3c 63 22 97 3d 5e f0 66 3e
       -0.0574559 0.02288104 0.073796056 0.2255263
000170 a3 9b f6 bd 2f 45 93 3f 33 77 2b 3f 99 f2 7e be
       -0.12041404 1.1505488 0.6697876 -0.24897231
000180 25 b1 4a 3f 40 46 ac bd 62 7f 37 be e1 96 29 3d
       0.7917655 -0.084118366 -0.17919686 0.041403655
000190 6e ea 33 be a1 38 ee bd 9a e7 25 3e f4 19 2b bb
       -0.17569897 -0.11631895 0.1620163 -0.0026107999
0001a0 3a a0 31 3d 2b 9c 08 3e 91 6a 3f bd c5 a8 bd 3d
       0.043365695 0.13340823 -0.04673249 0.09260706
0001b0 3d 48 c5 3d d1 6d fd bd 5c 74 75 be 17 88 2d be
       0.09632919 -0.123744614 -0.23970169 -0.16946445
0001c0 8f 8a b3 be 2a 47 dc be 11 34 b8 3d fd 39 9b be
       -0.3506665 -0.43023044 0.08994306 -0.3031768
0001d0 14 34 06 bf 75 9f 8d bd 08 ff 2c be 78 19 1b be
       -0.52423215 -0.0691518 -0.16894162 -0.15146434
0001e0 2d f7 56 bd 3a 1e 98 bd 17 7e 2a bd 86 84 46 3c
       -0.05248182 -0.0742764 -0.041624155 0.012116557
0001f0 af 42 bd bd d3 86 06 3e e4 a9 90 3d 9c 9f 14 3e
       -0.092412345 0.13137369 0.07063654 0.14514011
000200 9a 92 bf 3d cf e9 7f bd 1f d9 80 bc 39 0d a3 3e
       0.09354134 -0.062478837 -0.015728531 0.31846026
000210 19 a1 26 be fb 14 5b be ab 60 bf bd 7f 81 a2 bd
       -0.16272391 -0.21394722 -0.0934461 -0.07934856
000220 27 7b 31 be 7c 57 92 be 0a c6 1d 3e fb 0c a5 3e
       -0.17332135 -0.2858237 0.15407577 0.32236466
000230 96 3f 48 be 4f 6c 41 be 75 8d b3 3d 0f af b4 3e
       -0.19555506 -0.18888973 0.08767215 0.3528981

284 f4 [4]
000000 21 92 a7 3e 5b a4 3f 3f 66 87 82 bf 61 d3 68 3f
       0.32728675 0.7486016 -1.019757 0.9094754

286 f4 [8, 4, 3, 3]
000000 af 18 24 3d 6c 23 a1 3d 1a 3e 97 bd b1 f4 64 bc
       0.040062603 0.07868084 -0.07384892 -0.013974355
000010 61 07 26 3e c5 37 2f be f4 22 c4 bd 92 c3 52 be
       0.16213752 -0.17111118 -0.09576979 -0.20582417
000020 20 49 91 bd 0a b1 1c be 25 ec b2 3e d8 58 7d 3d
       -0.070940256 -0.1530191 0.3494579 0.061852306
000030 9a f1 26 3d 11 84 bc be 5b 74 b3 3b fa 02 bc bd
       0.040757753 -0.3681951 0.005476517 -0.09180255
000040 17 3e 04 be 1a 62 76 bd cc 57 3f 3d c8 d4 c5 3e
       -0.1291431 -0.06015215 0.04671459 0.38638902
000050 7b 0c fc 3e 50 c3 52 3d 41 45 89 be 8b f7 37 bd
       0.49228272 0.051455796 -0.2681065 -0.04491381
000060 99 7a da bd 3c 48 e4 bd 46 c6 d4 be e5 13 15 3e
       -0.10667915 -0.1114659 -0.4155752 0.1455837
000070 8c a3 24 3f 24 c6 f9 bd d9 d0 4e bd 45 54 8a 3f
       0.6431205 -0.121959955 -0.05049214 1.0806967
000080 44 c7 95 3f f9 6e d9 bd 33 af 75 be 32 b9 cb bc
       1.1701436 -0.106168695 -0.23992614 -0.024868581
000090 ad 09 f7 bc eb cf dc bd 66 4f d0 3d 31 b7 0f be
       -0.030155981 -0.10781845 0.10171394 -0.14034726
0000a0 5c 9d 24 3e 56 f8 ef bd 49 5f a1 bc b5 fa ea 3d
       0.16075653 -0.11717288 -0.019698756 0.114736
0000b0 11 07 11 3b 4f db 3a bd 75 eb 5b bd 63 ee e4 bd
       0.0022129456 -0.045619305 -0.053691346 -0.11178281
0000c0 45 5e a7 3e a6 ec a5 3e 09 22 9e 3d 08 6e 9f be
       0.3268911 0.3240711 0.077213354 -0.31138635
0000d0 ec 75 ec 3e f5 e1 a7 be ca 3d 45 3d 16 4d 3f bf
       0.46183717 -0.3278958 0.04815463 -0.74727
0000e0 da 23 3a 3e 50 eb a2 bd c4 f4 66 3f 59 da 3c 3f
       0.18177739 -0.079550385 0.9021723 0.7377067
0000f0 97 11 14 bf 9b e2 1e 40 d1 be 0a bd c7 42 24 3e
       -0.5783934 2.482581 -0.033873383 0.16041099
000100 fa 06 42 3b d4 f2 bd be 0a 80 10 3e dd 91 34 be
       0.002960621 -0.37099326 0.14111343 -0.17633767
000110 ac d0 d8 3d 24 63 a1 3e ef 0c 89 be 46 6c 1a be
       0.10586676 0.3152095 -0.2676768 -0.15080366
000120 1c 6f 08 bf 59 11 97 3d 48 35 86 3b e7 84 42 3f
       -0.5329454 0.07376356 0.004095707 0.7598404
000130 fe 55 89 3e b5 44 be 3d f4 40 13 be 5f 43 86 be
       0.2682342 0.092904486 -0.14380246 -0.26223275
000140 43 09 04 3e 7d 0f 31 3e 9c a9 a3 be 87 5a 00 3d
       0.12894158 0.17291065 -0.3196534 0.031336334
000150 93 42 1d be 5b 81 82 be c1 7b 8d be 6f f6 33 3e
       -0.15357427 -0.25489315 -0.2763348 0.17574476
000160 8b db b9 3e 39 90 50 bd eb 98 57 3e 7b 74 9c bd
       0.3630031 -0.05091879 0.21054427 -0.076394044
000170 16 9b ac bd a4 37 99 bc 3d 11 02 bf 93 ce f0 bd
       -0.08428018 -0.01870329 -0.50807554 -0.11758151
000180 4d 17 8f 3c 96 18 19 bf f9 69 00 bf f1 7a 30 3c
       0.017467165 -0.5980314 -0.501617 0.010771499
000190 82 ee c3 3d f3 e4 09 bf a1 f0 15 3f e1 b5 ea ba
       0.09566976 -0.53864974 0.58570296 -0.0017906987
0001a0 35 29 60 be 4f a1 99 3d a0 e5 32 bd 0b 36 cc 3d
       -0.21890719 0.0750147 -0.04367602 0.099712454
0001b0 40 42 33 3e 85 61 17 3f 35 80 99 bd 5a 7c 5c bd
       0.17505741 0.5913318 -0.07495157 -0.05382953
0001c0 47 a7 cd 3d 05 c2 9c bc d3 29 27 bd d3 d3 43 3d
       0.10041671 -0.019135484 -0.04081137 0.047809433
0001d0 06 d2 86 3d c8 32 11 3e 6a ba 95 bf 85 db 52 3d
       0.065830275 0.14179528 -1.1697514 0.05147888
0001e0 31 62 ae 3d 24 7a db be 9b 3c ed 3c 3a ea a8 3d
       0.08514822 -0.42866623 0.028959563 0.082478
0001f0 6d 02 38 3e 8f 6a 53 bd 8e 7e 8b bc 34 f6 fd bd
       0.17969675 -0.051615294 -0.01702812 -0.12400475
000200 07 cc b2 be 3d cd 72 3e 56 32 f1 3d 26 da 13 be
       -0.34921286 0.23711105 0.11777179 -0.14438686
000210 ad f5 6b be ca 9e 55 3e 55 7d e9 bc 4d a6 a0 3d
       -0.23042937 0.20861354 -0.028502146 0.07844219
000220 e0 07 59 3f f7 0d 52 bd c8 63 e8 be 76 51 b5 bd
       0.8477764 -0.05128285 -0.45388627 -0.08853428
000230 15 c3 8c bd 51 d1 21 3c fb 6f 01 3e 47 75 01 3c
       -0.068731464 0.009876565 0.12640373 0.007901496
000240 4c ea 87 bd 31 b5 2b be 30 56 11 be 27 71 0d bc
       -0.066364855 -0.16768338 -0.14193034 -0.008632935
000250 f2 40 c9 bf e3 5b a3 3d 8b 3a 41 bd 57 f1 4b 3e
       -1.5722945 0.079765104 -0.04717497 0.19916283
000260 82 22 60 bd 75 c3 7c bd 43 9f 95 bd af 15 7b bd
       -0.05472041 -0.06170984 -0.073057674 -0.061299976
000270 20 ad 2f 3e 47 dc 14 3f 0c 4a 9c 3e c1 c5 81 be
       0.17155886 0.58148617 0.30525243 -0.25346187
000280 ca 53 2a be 57 9a 4e be ab 57 09 be b5 35 42 be
       -0.16633525 -0.20176063 -0.13412349 -0.189658
000290 66 5a 9d 3c b2 c3 3e be 11 0e e9 3e 86 33 ca bd
       0.019208144 -0.1862934 0.45518544 -0.098731086
0002a0 a5 84 95 bd cb f3 74 be 16 3a bb bc ac 68 0a 3e
       -0.073006906 -0.23921125 -0.022854846 0.13516492
0002b0 63 bb d8 3d bb bb 8d bb 23 b3 dc 3e 3a ba c7 3e
       0.10582616 -0.0043253577 0.4310542 0.39009267
0002c0 b2 be b8 bc 32 e9 e0 3c 07 fc 47 3e fe b3 ba bd
       -0.022551868 0.027454946 0.19529735 -0.09116362
0002d0 ed 18 d9 bd ed 74 bf 3d b4 5d c0 3c 10 82 24 bd
       -0.10600457 0.09348474 0.023482181 -0.0401631
0002e0 8b 89 a8 3c 6f b5 4d be ad 6a 55 3e 76 20 3d bf
       0.020573398 -0.20088743 0.20841475 -0.73877656
0002f0 92 66 ff bc 7c 80 73 3e 27 56 12 bf 78 6f 8f be
       -0.031176839 0.23779482 -0.5716271 -0.2801473
000300 b3 55 08 3e 33 f7 46 3e 64 bc 9e bc cc da f2 be
       0.13313942 0.19430237 -0.019376941 -0.47432554
000310 5f 41 00 bd 39 46 a1 3e 54 c6 fd 3d b3 fe f8 bb
       -0.031312343 0.31498888 0.12391344 -0.007598722
000320 0a 39 96 3d 04 a5 3c 3e 1a df 76 be 7e 40 85 bc
       0.07335098 0.18422323 -0.24108544 -0.016266104
000330 b3 58 bf bd 76 25 9b be 29 fe 53 3e c0 6b 48 3e
       -0.0934309 -0.30302018 0.20702423 0.19572353
000340 65 a6 3d bc 03 7f d0 3e 6d 3c 15 be 3a 0e 08 3e
       -0.011575316 0.40721902 -0.14573832 0.13286677
000350 78 1c ce be 13 02 90 be c1 3f 7b 3e b1 07 83 be
       -0.40256095 -0.28126583 0.24536039 -0.25591806
000360 bd ce 27 3d 1b 95 18 bf 3d b8 84 3d 77 f7 b4 bc
       0.040968645 -0.59602517 0.06480453 -0.022090657
000370 c9 de 20 3f 67 e4 d9 bd 1a 17 d6 bd 52 3a 98 bc
       0.62839943 -0.106392674 -0.10453625 -0.018582497
000380 64 49 c7 bd 51 bd 0e be 84 66 2d 3e 15 11 13 bf
       -0.09730795 -0.13939406 0.16933638 -0.5744794
000390 97 24 11 be 29 5a 3f bd ed d3 3d bf 50 bd 67 3d
       -0.14174114 -0.046716843 -0.741515 0.056577027
0003a0 56 ee 1e 3e da f0 c8 3d fb fa b2 be 36 87 82 be
       0.15520605 0.09811564 -0.34957108 -0.25493783
0003b0 cb 41 c8 3e 61 d3 4e 3d 8c a3 5a be d0 0b 3c 3f
       0.39112696 0.050494555 -0.2135145 0.73455524
0003c0 bd f2 1b bf aa 4c bc bc 05 5f 3f 3e d1 c5 fe 3d
       -0.60917264 -0.022985775 0.18688591 0.12440074
0003d0 cc c4 c4 bf e9 18 2c be 21 ef ea 3e b9 6b b5 3f
       -1.5372558 -0.16806377 0.45885566 1.4173499
0003e0 09 f9 0b 3f 99 ca 3a bd d1 45 2c 3c 65 39 6e 3e
       0.5467687 -0.04560337 0.010514692 0.23264082
0003f0 95 4a 90 be 4f c9 ad bc 8f 8f ef bc 90 b5 c0 3e
       -0.28181902 -0.021214155 -0.029243259 0.3763852

287 f4 [8]
000000 03 d8 a6 bf 74 60 8d bf 5f c3 b1 3e 10 ae e7 3e
       -1.3034672 -1.104506 0.3471937 0.45249987
000010 20 1f b3 3e 01 35 8b 3f 0d b2 6a 3e 98 a0 22 3e
       0.34984684 1.087555 0.22919483 0.15881574
